checkpoints/clip_error_dqn_v1_checkpoint.pth (torch_old, 28411 bytes, 6 tensors)

fc1.weight f4 [64, 37]
000000 4c 1a 06 be c6 53 21 bf 2b 58 83 3d e2 d7 2a bb
       -0.13095969 -0.63018453 0.06413301 -0.0026068618
000010 d0 a3 8d be b9 67 11 3e e0 14 73 be 15 68 72 be
       -0.27664042 0.14199723 -0.23738432 -0.23672517
000020 5b e0 18 be 3b 22 00 be 8c 45 a8 be c5 ce 59 bd
       -0.14929335 -0.12513058 -0.3286556 -0.053175706
000030 a1 ac f8 3b 1b 47 2e be 7e d6 62 be cc 18 43 be
       0.0075889383 -0.17019312 -0.22152135 -0.19052428
000040 24 5e fb bd 14 cf 83 3e 75 9a 00 bf 16 dd 4f 3d
       -0.12273815 0.25743926 -0.5023568 0.050747953
000050 5e f5 2b 3d 9d 68 c0 bd 87 2d b6 3d 67 17 3a 3e
       0.041982047 -0.093949534 0.088954024 0.1817299
000060 e8 d5 34 be c7 77 18 3e 03 f1 e4 be 57 32 97 bd
       -0.17659724 0.14889441 -0.44715127 -0.073826484
000070 cb 64 da 3d ac ab ae be 09 e5 3f 3e 52 f8 c3 bd
       0.10663756 -0.3411535 0.18739714 -0.09568848
000080 42 71 90 3c 35 b2 26 bc 7b f9 fa bc f7 8f cb bd
       0.01763213 -0.010174324 -0.03063654 -0.099395685
000090 d6 ba 81 bd ec f8 21 be 5b 7a a9 bd 05 d3 93 bd
       -0.06334464 -0.15817612 -0.082752906 -0.07217983
0000a0 0d 31 1d bd 19 fc d3 bd 4f 00 9b bc d3 6c fb bb
       -0.038376857 -0.10350818 -0.018921046 -0.007672885
0000b0 1b 3d b4 bd 8c a4 bc 3c d3 e2 9d be b9 94 b2 bd
       -0.088007174 0.02302768 -0.30837116 -0.08719773
0000c0 b9 a4 3d bd 14 ea 6d 3e 18 c5 10 be 47 c9 be bd
       -0.04629967 0.23233825 -0.14137685 -0.09315734
0000d0 f8 2e de bc 00 7c c2 3d af 57 30 be 52 f8 09 be
       -0.027122006 0.094963074 -0.17220949 -0.13473633
0000e0 e6 48 0e bd 82 72 b3 3c 0e c1 0c be 41 fd e0 bc
       -0.03473749 0.021905188 -0.1374552 -0.02746451
0000f0 f4 54 b7 bc fb fe 2f be 45 c4 22 be a3 b8 46 be
       -0.022379376 -0.17187111 -0.15895183 -0.19406371
000100 f0 56 07 be d1 a4 3f bb fe 37 14 be 96 e7 48 be
       -0.13216758 -0.0029242525 -0.14474484 -0.19619593
000110 e1 0a 02 be ee 31 32 3e 2a 5e 8f bd 25 b2 90 3c
       -0.12699462 0.17401859 -0.07000382 0.017663071
000120 a5 6d df bd 2b 48 18 be c6 09 d4 3d 5a 37 af bd
       -0.10909585 -0.1487128 0.10353427 -0.08555479
000130 3f 81 fb bb 0a 7a 49 bd 57 06 32 bd b8 a2 b4 bd
       -0.0076753194 -0.04918865 -0.043463077 -0.08820099
000140 d7 ea 18 3e 30 83 10 3e 8a 6a 17 3e ae ef ed 3e
       0.14933334 0.14112544 0.14786735 0.46471924
000150 b9 57 28 3d 1b 0a 7f be f8 1a 2e be 9d 90 1d 3e
       0.041099284 -0.24906199 -0.17002475 0.15387197
000160 7a 4b 5d bc 5a eb 4f 3e 11 30 35 be b9 7c 96 3c
       -0.013506765 0.20304623 -0.17694117 0.01837002
000170 7c 85 fb 3c 1f 93 a1 bd d1 ae 1f be da f9 56 3c
       0.030703299 -0.07889389 -0.15594031 0.013121093
000180 72 b8 9c 3e 5e d8 b6 3d ee 8f 13 3f 98 06 df 3d
       0.3060947 0.089279875 0.57641494 0.108899295
000190 48 5b 99 3d 6a b5 43 be 47 40 83 be 8d 04 19 bf
       0.07488114 -0.19112173 -0.25634977 -0.5977257
0001a0 3a fd 5f bd 82 0a 3f bd ab 53 89 3d b9 c4 f2 ba
       -0.054684855 -0.04664088 0.067054115 -0.0018521763
0001b0 60 9f 8e 3e 85 82 a4 bc e5 ae 32 3d f0 64 b4 bd
       0.27855968 -0.020081768 0.043623824 -0.08808315
0001c0 aa 60 df bc e5 2a 26 3d fe 35 e3 3b 73 c1 a1 3d
       -0.027267773 0.04056825 0.0069339266 0.07898226
0001d0 81 1f 52 be 9c 6b 8f bd b1 fc 27 bd ba 55 86 3e
       -0.2051983 -0.07002947 -0.04101247 0.2623728
0001e0 9a bc b2 bd 05 42 63 3e 3d 45 2b 3e 0f 79 96 be
       -0.08727379 0.22193153 0.16725631 -0.29389235
0001f0 84 9c c0 3d 79 14 f2 be 3a 42 68 3d b2 d3 18 be
       0.09404853 -0.47281244 0.056703784 -0.14924505
000200 cd e6 74 3e 62 4c 13 3e 8a 61 7e bc 07 9f c3 3d
       0.23916169 0.14384606 -0.015526185 0.095518164
000210 e1 5c 35 be 0a 4b df bd f7 bf 1b be 15 1e f9 be
       -0.17711212 -0.109029844 -0.15209948 -0.48655763
000220 4b 4d 19 bd 56 5f 4b bd 44 cc 27 bd bb a5 27 3c
       -0.037427228 -0.049651466 -0.040966287 0.010232384
000230 40 14 8e 3b 16 66 21 3d 13 64 78 be 71 a9 8a 3e
       0.00433591 0.039403997 -0.24256925 0.270824
000240 e0 f8 95 3d 08 2b 7f 3d 3f 2c dd bd 02 03 4d 3c
       0.0732286 0.062296897 -0.10799455 0.012512924
000250 f8 da 84 be d2 25 0f be d5 77 4a be c9 f4 2f 3c
       -0.2594831 -0.13979271 -0.19772275 0.010739514
000260 ac 63 5a be 3c 35 b8 bc 80 97 10 3e 59 7c 03 3e
       -0.21327084 -0.022486322 0.14120293 0.12840404
000270 60 24 45 be 1d 33 98 bc 20 26 b6 bd 8f d5 9b be
       -0.19252157 -0.01857906 -0.088939905 -0.3043637
000280 d4 01 f2 3d e2 d3 4b 3d f7 9e 44 bf f6 96 d6 bc
       0.11816755 0.049762614 -0.7680506 -0.02619503
000290 21 b2 9b 3e 0a 9e ac 3b 46 59 95 3d 6e c3 1d 3d
       0.3040934 0.005267863 0.07292418 0.038516454
0002a0 cf e4 29 3d a4 e4 41 be d8 2e 97 3d 07 79 38 be
       0.041477975 -0.18934876 0.073819816 -0.18014918
0002b0 82 df 9b be d5 a3 16 3d b2 f7 95 bd 3b 62 85 be
       -0.3044396 0.036777336 -0.07322635 -0.26051506
0002c0 19 89 2c be bb 89 6f be 56 b4 0a 3e 22 c1 5d 3c
       -0.16849174 -0.23392384 0.13545355 0.013534816
0002d0 44 23 86 bd c3 9b 03 be a8 92 31 3d 9a 72 74 be
       -0.06549695 -0.12852387 0.043352753 -0.23871842
0002e0 58 d3 c2 bd c6 0f 9a 3d 14 6a 0b be ef 64 21 bc
       -0.09512967 0.0752254 -0.13614684 -0.009850725
0002f0 2b ec 13 3e c8 19 31 be 54 96 f2 bd 61 56 49 be
       0.1444556 -0.17294991 -0.11845079 -0.19661857
000300 ad 97 ab 3d 43 1c a7 3d b8 8f 7e be 83 c9 c2 bc
       0.08378539 0.08159687 -0.24859512 -0.023777729
000310 9d 58 83 3e 72 af 81 be 26 82 36 3c 39 50 89 3e
       0.25653544 -0.25329167 0.011139428 0.26819018
000320 6d 61 9d bd 93 86 9f bd c8 5e e0 3d df 46 50 3d
       -0.07684598 -0.0778934 0.10955578 0.050848838
000330 af 05 db bd 90 8d 12 bc e8 7d a3 bc fd 31 5b 3d
       -0.106944434 -0.008944884 -0.019957498 0.05351447
000340 b3 e4 32 3d 06 f1 94 3e 75 c1 f8 bd c1 be 31 be
       0.043675136 0.29090136 -0.12146274 -0.17357923
000350 e5 47 04 3d 81 e6 7c 3d a4 4e 22 bd cc b4 02 be
       0.032295126 0.061743263 -0.03962578 -0.12764281
000360 26 18 53 3b 29 d2 4b 3d 2d 7c df bc 59 67 8f be
       0.0032210439 0.04976097 -0.027280891 -0.28008536
000370 6c 88 58 be 4e df ae bd 5a f7 f2 39 ff 0b 28 be
       -0.21145791 -0.08538686 0.00046342128 -0.16410826
000380 13 80 8f 3d e9 c6 fc bd f6 c1 9d be 71 36 bb bd
       0.0700685 -0.123426266 -0.30812043 -0.09141243
000390 79 ff 61 bd a7 dc d8 bd f2 d2 03 bd 4d c0 60 bf
       -0.05517528 -0.10588961 -0.032183595 -0.8779343
0003a0 da 39 8d bd 13 ae d3 bd 37 bf c9 3b 02 cd c4 bd
       -0.068958 -0.103359364 0.006156828 -0.09609415
0003b0 38 9c e3 3d e0 ca a9 3d 29 a8 a7 bd ed 12 d4 bd
       0.11113781 0.082906485 -0.08186371 -0.10355172
0003c0 a0 53 a3 bd 30 be 09 be 9d 8b 01 be cd bb 81 bd
       -0.079749346 -0.13451457 -0.12650914 -0.06334648
0003d0 10 15 35 3e 8d 9a 43 3d 3c f2 79 3e c4 3c 45 be
       0.17683816 0.047754813 0.24408811 -0.19261461
0003e0 ef 07 aa 3d 96 a0 3e 3d 43 38 8a 3e 91 fa 49 be
       0.083022945 0.046539865 0.2699605 -0.1972449
0003f0 02 c5 d0 3d 56 1e 4f be 6b 3b 0f 3c 66 c8 23 3c
       0.10193826 -0.20226416 0.008742194 0.009996509

fc1.bias f4 [64]
000000 ab 71 87 3d 97 16 15 be 1a 2c 2b be be bb c5 bd
       0.06613477 -0.14559399 -0.16716042 -0.096549496
000010 69 8e 8a 3c 08 87 cc bd aa 1d d5 3c 3a a7 47 bc
       0.01691361 -0.09986693 0.026015121 -0.012185866
000020 69 62 1a bc 52 8a 01 be d5 cb 69 3c c7 49 83 bd
       -0.009422877 -0.12650421 0.014269789 -0.06410556
000030 6f a9 21 3e c0 55 cd bd c7 c8 8e ba 58 e6 88 3d
       0.1578729 -0.10026121 -0.0010893577 0.066845596
000040 de d9 c6 ba 90 da ba bd 1f 74 f7 bb ef 9e d9 bd
       -0.0015171131 -0.09123719 -0.0075516845 -0.10626017
000050 af 1e c1 3d 5b bd 08 3e f8 d6 87 3d 3a 6a 3a 3c
       0.094296806 0.13353483 0.06632799 0.011377865
000060 da eb 90 bd 08 03 5c bc 41 62 ae bd 34 1e 43 be
       -0.07076235 -0.013428457 -0.08514834 -0.1905449
000070 0b 64 b5 3d 8b 7b 23 3e 3d aa 3d bc ad 93 34 3e
       0.08856972 0.15965097 -0.0115762325 0.17634459
000080 f9 30 b5 3d 4f ca 8c bd b2 f4 55 bd 72 12 10 be
       0.088472314 -0.06874525 -0.052235313 -0.14069536
000090 66 58 eb bd e0 52 16 be f1 6e eb 3b 25 01 77 3d
       -0.1149147 -0.14680052 0.007184856 0.060303826
0000a0 29 9a 3b 3d 88 e4 c7 3d f9 01 cf 3c 7b d3 75 3e
       0.045801315 0.09760386 0.025269495 0.24006455
0000b0 0d 38 4a 3e f1 17 cc 3d db 59 be 3d 5f 9b 64 3d
       0.19747944 0.09965504 0.09294482 0.055812236
0000c0 30 35 74 bc 8d 8e 65 bd c3 1b fc bd 30 73 15 be
       -0.014905259 -0.05604415 -0.12309983 -0.14594722
0000d0 31 29 69 3e 7c f6 b0 bb 36 5b 7e bd a0 a0 48 bd
       0.2276962 -0.005400477 -0.062098704 -0.04898131
0000e0 23 75 f2 3d 06 18 2f bd 52 62 68 bd 51 c3 1a 3e
       0.11838748 -0.04274752 -0.05673439 0.1511357
0000f0 36 e6 9d 3d 6f a1 54 bb 87 8e 4e 3d d1 e2 c5 3d
       0.07709925 -0.0032444855 0.050428893 0.096624024

fc2.weight f4 [64, 64]
000000 93 78 10 be 20 38 9d 3c aa bb 57 3e 32 98 fd 3c
       -0.14108495 0.019191802 0.21067682 0.030956361
000010 d7 c4 44 bd da 37 2d be 1f 1f bf be 6c 23 10 bd
       -0.048039284 -0.16915837 -0.3732843 -0.03519003
000020 ca 34 f0 3d f0 71 75 be 81 a4 c0 bd 91 7f 09 3e
       0.11728819 -0.23969245 -0.09406377 0.13427569
000030 a4 dc a4 bc cf 63 fe bd 75 07 4c be f1 1b 64 be
       -0.02012474 -0.12421381 -0.1992472 -0.22276284
000040 a5 e9 c2 bb b7 6a 0e 3e fc aa 2e 3e b3 46 24 bd
       -0.0059482628 0.13907896 0.17057413 -0.040106487
000050 03 8a 27 bd b3 e9 8a 3e cd 08 84 3d df 5d 2c 3e
       -0.040903103 0.27131423 0.06446991 0.16832684
000060 62 86 a3 be d8 38 24 be c5 f0 c9 bd 95 9d 53 3d
       -0.31938463 -0.16037309 -0.09860376 0.051663954
000070 7f 73 06 be cf bd 2d be 26 3c 80 bc 9d b1 f8 bd
       -0.13129996 -0.16966937 -0.015653681 -0.12143252
000080 05 c9 2c be 05 28 95 bc 1b 8a 1a 3e 35 ab 5d be
       -0.16873558 -0.01820756 0.15091746 -0.21647342
000090 9b 84 d3 3d 48 e4 9a 3d e5 2a cd 3c fd 07 a0 3c
       0.10328027 0.075630724 0.025044868 0.01953506
0000a0 4b d3 3d be ae a3 40 be 35 9f a1 3e 3d a3 67 bd
       -0.18537633 -0.18812439 0.31566778 -0.05655216
0000b0 04 4d cc be fe 66 9d 3d 79 ef 85 be a5 73 a3 be
       -0.39902508 0.0768566 -0.26159266 -0.31924167
0000c0 2a 97 e0 be 1b c7 56 bd a2 55 20 be 4a 37 7c 3c
       -0.4386533 -0.052435976 -0.15657666 0.015394041
0000d0 60 49 91 bd b6 ca 73 be a2 d8 63 be 67 85 7e be
       -0.07094073 -0.23807797 -0.22250608 -0.24855576
0000e0 b3 0a 9f bc a0 82 d8 bd 51 35 e3 bd f0 25 c3 bc
       -0.019414281 -0.1057179 -0.11094154 -0.023821801
0000f0 ec 19 c0 bd ab 21 5b 3d 48 6d 97 bc 4b 56 ab be
       -0.09379944 0.053498905 -0.018484727 -0.33464274
000100 de c8 53 bd fc 90 b8 bd 37 8b 35 bd 72 87 70 3d
       -0.051705234 -0.090120286 -0.04432222 0.05872292
000110 ac 45 cc bd 8d 5a e3 3d d7 c7 e4 3c 6d e2 80 be
       -0.09974226 0.111012556 0.027927322 -0.2517275
000120 86 53 fd bb 00 dc 35 3d 73 5b 1c 3e 19 00 23 3c
       -0.007730904 0.04439926 0.1526926 0.009948754
000130 0c d5 d1 be 29 20 1a bc 4a 94 8d 3d 57 55 00 3e
       -0.40982854 -0.009407082 0.069130495 0.12532555
000140 b5 cd 1c 3e 20 01 05 3c 4c be a8 bd fd ee 62 3e
       0.15312846 0.008117944 -0.08239421 0.2216148
000150 dd 0f b0 bd 81 a9 7c be 54 33 1b be 80 a6 b3 bd
       -0.08596776 -0.24674036 -0.15156299 -0.08771992
000160 5d 49 10 3e d4 c6 d1 3c f3 f3 84 bd 48 31 41 3d
       0.14090486 0.025607504 -0.06491842 0.04716614
000170 6a 2b 43 3e 28 ce 83 3c 11 e8 1c 3e 8f 30 64 be
       0.1905953 0.016089514 0.15322901 -0.22284149
000180 c9 1c 03 bd 64 dd b1 3c 5f a4 f3 3d 84 cc 68 bb
       -0.032009874 0.021712013 0.11896586 -0.0035522291
000190 b0 a1 d0 bd 15 f7 ac bd 8b 45 b2 3c f8 e0 5a 3d
       -0.101870894 -0.08445565 0.021761676 0.053437203
0001a0 df 69 80 bc 6a 13 4b be 3a 52 b5 bd 4f a1 81 3d
       -0.015675483 -0.19831625 -0.08853574 0.06329595
0001b0 0f 80 01 bc f9 10 31 3d 40 a1 03 bd 79 59 bb 3c
       -0.007904067 0.043229077 -0.0321362 0.022869812
0001c0 dc 7f a1 bd 96 82 bb bd 4f 17 ae 3d 53 b9 89 3d
       -0.07885715 -0.09155767 0.085005395 0.06724801
0001d0 05 82 98 bd 0f 6d a2 3d d7 90 e2 bb 18 4f ae 3b
       -0.07446674 0.079309575 -0.006914239 0.0053194873
0001e0 20 3c 4d 3c 0b 78 15 be fc d5 cc be 82 8c 8c 3d
       0.012526542 -0.14596574 -0.40007007 0.06862737
0001f0 ca 77 8a bd 8a 96 2f 3e bb 5d eb 3d 53 0c a7 3d
       -0.06761129 0.1714727 0.11492487 0.081566475
000200 1c 8e 3d 3e 4a e2 28 be 9f b9 bc 3d 1e 2a 3b 3e
       0.18511242 -0.16492572 0.09215092 0.18277785
000210 6d 98 5f bc 3f 06 8c 3d 61 44 30 be 95 a1 83 be
       -0.013647181 0.06837129 -0.17213584 -0.25709215
000220 90 9a d4 3d 39 83 72 be 30 ad 33 bd dd 47 a9 bd
       0.10381043 -0.2368287 -0.043866336 -0.0826566
000230 70 c1 c8 be a0 da 86 be c6 c3 92 3d 71 9b 6a 3d
       -0.3921008 -0.26338673 0.07166247 0.057277147
000240 b3 12 40 3e 62 e7 79 3e 0c 4a 15 3d c0 84 02 3e
       0.18757133 0.24404672 0.03644757 0.12745953
000250 89 82 9a be e2 4c c8 3e 20 fc ed bc 34 ef 04 3d
       -0.30177715 0.39121157 -0.029050887 0.032454684
000260 e4 d5 ad bd 98 e1 08 be bf d0 95 be 78 95 16 bd
       -0.08488062 -0.13367307 -0.29260823 -0.03676364
000270 5f 7b bd 3d 30 f0 97 bd 9b af 06 3d 51 56 1e be
       0.09252047 -0.07418859 0.032882314 -0.15462615
000280 87 20 ad bc 6f 33 5c be 8b fc 06 3e c1 1f 7f 3e
       -0.021133674 -0.21503995 0.13182275 0.24914457
000290 62 56 51 3e 0c ae a5 bd be 9a 3c be 93 04 35 3e
       0.20443109 -0.080898374 -0.18418404 0.17677526
0002a0 f8 c0 e1 bd fd 62 ac 3b a8 38 04 3e 0a 1a 5a 3d
       -0.11023134 0.0052608238 0.12912238 0.05324749
0002b0 3e bd 15 be 78 9d 27 3e bb d2 ac bd 4a 0b b2 3c
       -0.14622971 0.16368663 -0.08438631 0.021733899
0002c0 65 d0 9e bc 5f 07 92 3c 29 fa 70 be 11 db 50 3e
       -0.01938648 0.01782578 -0.23532929 0.20396067
0002d0 e6 17 b8 3d 25 79 c8 3d a9 c4 df 3c 3d fe 3d 3e
       0.08988933 0.097887315 0.027315455 0.18554015
0002e0 c9 15 09 3e 1b 47 de bd 0d 62 e8 bd c6 ea fc bd
       0.13387217 -0.10853406 -0.11346827 -0.12349467
0002f0 79 1d c1 be 13 77 72 bb b8 d1 82 bb 42 87 c5 bd
       -0.37717798 -0.0036997243 -0.0039922856 -0.09644939
000300 90 bc 13 3e 5d 84 9e bd 11 1d 0c be 76 ea bc 3d
       0.144274 -0.0774009 -0.13682963 0.092244074
000310 2b 76 9b 3c f7 33 e5 3d 58 f5 50 3d 47 40 78 3e
       0.018977245 0.11191552 0.051015228 0.2424327
000320 17 64 00 be 73 eb bd bc 1c 3a 90 3d 51 43 76 bc
       -0.12538181 -0.02318356 0.070423335 -0.015030698
000330 b8 1b 7e 3c 52 f8 83 bc 66 0c 6d 3a da a6 b8 3d
       0.015509538 -0.01610962 0.000904268 0.090161994
000340 4e 33 4e 3e c1 99 e9 3d 11 8b 37 be 65 a9 9c 3d
       0.20136759 0.11406279 -0.17924143 0.07649497
000350 ea a7 da 3d 98 fa 1a be a7 71 1e 3e d3 2e aa bd
       0.10676558 -0.15134656 0.15473042 -0.08309712
000360 a0 fc 5e 3d 51 23 93 bd 97 eb 79 bd d2 5a 5e bd
       0.05444014 -0.071844704 -0.06101569 -0.05428583
000370 54 ba 8f bc d4 b0 76 3c 7b b9 6b be c6 34 97 3e
       -0.017544903 0.015056808 -0.23019974 0.2953245
000380 ca 23 98 bd 97 fa c6 3d ad 27 b7 bc d0 31 18 be
       -0.07428701 0.09715765 -0.022357786 -0.14862752
000390 da 17 db 3d a8 ae b1 bd 85 33 11 bd fb f8 00 3d
       0.10697909 -0.08675891 -0.035449523 0.031487446
0003a0 a0 55 3b bd c6 b8 5d 3e 7f 24 32 3d 2f e4 49 3d
       -0.045735955 0.21652517 0.043491837 0.04928988
0003b0 28 f1 9a 3d 4a ce 6a bd 60 bc 06 3e 3e f5 20 bd
       0.07565528 -0.05732564 0.13157797 -0.03929638
0003c0 b5 3f 31 be 28 14 9e bc 06 a2 15 bd 1f 41 1f be
       -0.17309459 -0.01929672 -0.03653147 -0.15552185
0003d0 c0 a2 07 3e 2a 44 2c 3d aa 74 d8 bd 0c 4c 9b bc
       0.13245678 0.042057194 -0.10569127 -0.01895716
0003e0 18 1f 42 bd c5 5a d2 bd 67 6e 1e 3e 00 23 3a bd
       -0.047392935 -0.10271219 0.15471803 -0.045443535
0003f0 b1 9b 15 3d e3 ed a8 bd c1 73 0e be dd 58 ee 3c
       0.036525432 -0.08248498 -0.13911344 0.029095108

fc2.bias f4 [64]
000000 7e 26 8f 3d 0b 10 2c 3e 86 61 7a bd c1 d4 ae 3d
       0.06989764 0.16802995 -0.06112816 0.08536673
000010 97 2a b3 3d 0c 71 d2 3d 45 42 8a 3e d9 3c 44 3e
       0.08748358 0.10275468 0.27003685 0.19163837
000020 c2 0e 18 bd 7d 13 63 bd 75 c9 79 3d ee 99 fc bc
       -0.03712345 -0.055438507 0.06098314 -0.030835118
000030 51 eb 57 bd 2a 7e 73 bd 9e 7d 3a 3d 98 75 ff 3d
       -0.05271465 -0.05944649 0.045529954 0.12473601
000040 6b 6e c7 3d e2 4c 64 bd 20 3f fa bb c1 65 7c bd
       0.097378574 -0.055737384 -0.0076369196 -0.061620478
000050 9d 36 a9 3d 75 1e 2c 3c bc 07 c2 3d ec 83 a4 bd
       0.0826237 0.010505308 0.094741315 -0.080329746
000060 7d 07 b8 bd 21 df 12 bd de 44 d5 bb fc b9 c4 3d
       -0.08985803 -0.035857324 -0.0065084537 0.09605786
000070 a9 2a 01 3e 42 93 f5 bd 30 69 ac b9 ce c9 b6 3c
       0.1261393 -0.11990978 -0.00032884767 0.022313025
000080 10 61 86 bd 30 a6 67 3e 5c 35 53 be 3e 63 57 bd
       -0.06561482 0.22621989 -0.20625824 -0.05258488
000090 9d ba c0 3b 49 b2 5a 3e 6d 92 9a 3d 10 26 d7 bd
       0.005881621 0.21357073 0.0754746 -0.10505307
0000a0 ee d4 d5 bd 27 85 8c 3e 68 55 a5 bb 02 e2 69 bd
       -0.10441004 0.27445337 -0.0050455816 -0.057100303
0000b0 2e e4 74 3c 01 1c cf 3d 16 5b e8 bd 72 07 e1 bd
       0.01494698 0.10112763 -0.11345498 -0.10987748
0000c0 07 1d e0 3d 94 20 e3 3d 09 24 29 bd 4f 9e ed 3d
       0.109430365 0.11090198 -0.04129413 0.116024606
0000d0 57 63 60 bd c1 f0 89 3e d5 76 8d 3d ba 61 e3 bd
       -0.054782238 0.26941493 0.06907431 -0.11102624
0000e0 64 e1 ad bd 4a c9 ba bd 9a 0f 5c 3c ae 96 f5 bd
       -0.084902555 -0.09120424 0.013431454 -0.119916305
0000f0 1c 29 2d be eb d2 e6 3d 40 4f b4 bc db db a4 3d
       -0.16910213 0.11270698 -0.022010446 0.080497466

fc3.weight f4 [4, 64]
000000 a4 b3 2b 3e 98 a0 47 be 0d 42 60 3d 69 2d 87 3e
       0.16767746 -0.19494855 0.05475049 0.26401833
000010 39 37 1d 3d 5f 31 ad 3d e0 3c a3 3d 8b 12 05 3e
       0.038382743 0.084566824 0.07970595 0.12995355
000020 f8 f3 8e 3e 46 56 3a be 7a 9a a0 3e ea ab 8b 3e
       0.27920508 -0.18196973 0.31367856 0.27279598
000030 d6 cb 1b 3c be 75 43 3e c0 40 3d be 71 2a b4 3e
       0.0095090475 0.19087884 -0.18481731 0.3518863
000040 3b e0 9c 3d 57 24 49 3e 0c ad 99 be c3 64 7b be
       0.07659956 0.19642769 -0.30014837 -0.24550156
000050 b7 6a 53 bd a4 be 8f 3e a8 0d a8 3e 8d cc 28 bf
       -0.051615443 0.28075135 0.3282292 -0.6593712
000060 62 c1 2a be ab ae 1e be 37 57 97 bc 43 18 e9 bd
       -0.16675332 -0.15496318 -0.018474204 -0.11381581
000070 71 68 09 bf a4 d7 c3 3d cb 03 e5 3c 83 3c d5 3d
       -0.5367499 0.095626146 0.02795591 0.10411932
000080 76 71 6d 3e 7c 49 a5 3d 75 6d fd bd 11 5d ca bd
       0.23187813 0.08070657 -0.12374393 -0.09881032
000090 70 b3 bb be e3 0d 09 3e a9 c5 56 3e bf f9 c7 3e
       -0.36660337 0.13384204 0.20973839 0.3905773
0000a0 9b 97 db 3e c2 14 0d 3e 8b 5f 9e bd 4f cd a6 3d
       0.42889103 0.1377745 -0.07733067 0.08144628
0000b0 a2 5e df 3d c2 72 99 3b b6 23 65 3e ae fd 4a be
       0.10906722 0.0046828697 0.22376904 -0.19823334
0000c0 21 2b bf 3d 8b 2f 72 3d d5 14 99 bd 9f 9b 17 bd
       0.09334398 0.05912737 -0.074746765 -0.037013646
0000d0 e4 5f 61 3e f7 8e 15 3e 5e 03 b7 3c 02 13 15 3e
       0.22009236 0.14605318 0.022340473 0.14558032
0000e0 31 e2 9f 3e 1a fd 8c be ce 72 55 bd 1d 03 a9 bc
       0.31227258 -0.2753685 -0.05211144 -0.020631367
0000f0 b5 d8 2a 3e 19 68 ee 3d 51 65 80 3e 64 5a 47 be
       0.1668423 0.11640949 0.25077298 -0.19468075
000100 95 fd a1 3e 7f 37 7e 3d 11 3b 4c 3e ef bc 73 3e
       0.3163878 0.062064644 0.19944407 0.23802541
000110 bc 75 22 3e 8d 17 0b 3e a4 5b 03 3e 07 11 29 3e
       0.15865225 0.13583203 0.12827927 0.16510402
000120 75 fb a7 3e 38 90 9b 3d d7 bd 11 3d 11 ac 08 3e
       0.32809034 0.07595867 0.035581436 0.13346888
000130 79 25 03 3d 3e 07 2b 3e f1 5e 1b be 57 35 cb 3e
       0.03201816 0.16701981 -0.15172936 0.39689133
000140 16 b1 06 3d 4f 78 48 3d 0c 45 f9 bd 3a cb 9e bd
       0.032883726 0.04894286 -0.12171373 -0.07753606
000150 83 a9 f0 3c fe b2 1b 3e 1c 5a 44 3e a5 8f b4 be
       0.029377704 0.15204999 0.19174999 -0.35265842
000160 4b 16 7d bd ef 6d 10 3e 8e 94 a0 be e3 c2 df bd
       -0.06178884 0.14104436 -0.31363338 -0.109258436
000170 c6 13 4f bd 0c a2 34 3e ec 5d 7c bd 4c 37 3c 3d
       -0.050555967 0.17639941 -0.06161301 0.045951173
000180 1e be e0 3d e8 fb 91 bb 63 c3 0e be b6 96 df bc
       0.10973762 -0.0044550784 -0.13941722 -0.027293544
000190 69 85 82 bc 44 cb ad 3d c5 a2 8f 3e c0 d7 c9 3e
       -0.015932756 0.084860355 0.2805387 0.39422417
0001a0 14 63 00 3e 20 3e 3a 3e 18 5c 02 be 98 3a d4 3e
       0.12537795 0.18187761 -0.12730443 0.41450953
0001b0 93 3c 4f 3e 1c 24 d3 3c 73 01 41 3e 6d c4 9e 3e
       0.20237951 0.025774054 0.18848209 0.31009236
0001c0 e9 57 47 3d be d2 06 3e df 72 05 bd 51 de 9f be
       0.048667822 0.1316633 -0.032580253 -0.312243
0001d0 bc 00 93 3e 50 22 b4 3d fc 32 b1 3d 4b c2 15 3d
       0.28711498 0.08795607 0.086523026 0.036562245
0001e0 1c 99 72 3e 2c 05 30 bd 81 85 90 3d 18 2b b6 3d
       0.23691219 -0.042973682 0.07056714 0.08894938
0001f0 c1 c4 6e 3e b6 3d 0c 3e 92 39 33 be e8 03 90 3d
       0.23317243 0.13695416 -0.1750243 0.07031995
000200 aa da b5 3e fe e3 6a 3d bd ac 86 3e ba d1 96 3e
       0.3551839 0.057346337 0.26303664 0.29456884
000210 13 0d c9 3e 0c 42 34 3d 23 01 d2 3d 87 40 8b 3d
       0.39267787 0.0440083 0.10254123 0.06799417
000220 c5 66 46 3e db 10 6d 3e 64 71 35 3e e0 da a0 3d
       0.19375141 0.23150961 0.17719036 0.07854247
000230 d1 29 12 3e 73 e8 a3 3d ac 02 41 be 60 53 9f 3e
       0.14273764 0.080033205 -0.18848675 0.31118298
000240 1f aa 5d 3d 1c 29 b1 be 0e 6b ca bd 92 75 29 be
       0.05411732 -0.34601676 -0.098837 -0.16548756
000250 6f 9b 91 be 7e 6a 71 3e 7d 7e af 3d 8f 3c b0 bd
       -0.284389 0.2357578 0.085690476 -0.08605301
000260 dd bd d7 bd a5 c9 06 bb b0 64 a1 be 32 56 8c 3d
       -0.105342604 -0.0020566967 -0.3152213 0.06852378
000270 2c af 85 be 61 cf 05 3e d8 a6 41 3e b0 38 6b 3e
       -0.26110208 0.1306739 0.18911302 0.22970843
000280 f6 65 68 bd e1 1b 2f 3d c6 ed 84 be 68 6b 5c be
       -0.056737863 0.042751197 -0.25962657 -0.21525347
000290 6e 23 ae be 4d a4 3e 3d 43 88 0e 3e 24 90 30 3f
       -0.34011406 0.04654341 0.13919167 0.6896994
0002a0 7e f5 34 3e 16 d4 30 3e 63 f1 10 3e d5 ab df 3e
       0.17671773 0.17268404 0.14154582 0.43685785
0002b0 61 de 5b 3d 68 7c b7 3d bf 80 60 bd d2 98 d3 3b
       0.053678874 0.089592755 -0.05481028 0.0064574266
0002c0 6f 21 02 3e 1a bc 15 3e f0 bf 60 be 38 83 20 3e
       0.12708066 0.14622536 -0.21948218 0.15675056
0002d0 cf b9 e2 3d f4 2a 02 3e a7 4c 90 bd 69 f2 03 be
       0.110705964 0.12711698 -0.0704587 -0.12885441
0002e0 b0 e9 d3 3d c0 10 7e 3d 93 c6 18 3e 2c 15 83 bc
       0.10347307 0.062027693 0.149195 -0.016001306
0002f0 59 97 e5 3e 5b c5 37 3e 61 43 b0 3e 41 2e af bd
       0.44842032 0.17946379 0.34426406 -0.08553744
000300 16 bc db 3d d5 41 5f 3d fb c8 c4 bd dd 10 05 3e
       0.10729234 0.05450614 -0.096086465 0.12994714
000310 9c cf fd b9 ab c6 95 bd 23 70 65 3d d7 dc 07 3e
       -0.000484106 -0.073132835 0.056015145 0.13267837
000320 11 a7 af 3e a8 c4 34 be 62 02 18 bd 7f cc e3 3d
       0.3430715 -0.17653143 -0.037111647 0.11122989
000330 6e f2 77 bc 28 14 21 3c 97 a5 62 be 1a 10 f9 bd
       -0.015133483 0.009831466 -0.2213348 -0.12161274
000340 5d c2 27 bd 18 6e e8 be 79 45 c6 bd 1f 65 cc bd
       -0.040956844 -0.45396495 -0.096812196 -0.09980225
000350 4d 91 47 3e e0 c1 af bd 10 fa ac 3e 13 e7 86 be
       0.19489022 -0.085819006 0.33784533 -0.2634817
000360 79 8c 93 be 90 eb 7b 3e d1 84 8c bd f1 4a d4 bd
       -0.2881811 0.24601579 -0.0686127 -0.103658564
000370 9e 3e 66 be 5e 3a 00 3f 21 34 4e 3d 3a aa 2c 3e
       -0.22484824 0.5008906 0.050342683 0.16861811
000380 92 e8 46 be 71 e3 0c 3e 0d 3d 83 bd 0e 91 c7 bc
       -0.19424656 0.13758637 -0.06408129 -0.02436116
000390 a3 e5 20 3e ba 6f 63 3e b6 7f b1 3e e9 27 84 3e
       0.157126 0.22210589 0.34667748 0.258117
0003a0 d6 e4 33 3e 7f 4f 15 3e 59 03 9e bd 89 06 78 be
       0.17567763 0.14581107 -0.07715482 -0.24221243
0003b0 02 36 8b 3e 68 0d 05 3e 45 14 89 3e c0 51 a4 be
       0.27189642 0.12993395 0.26773277 -0.3209362
0003c0 44 a0 05 3e 08 be fb 3d 2d 8d 86 bd a7 3f 80 be
       0.13049418 0.12292105 -0.06569896 -0.25048563
0003d0 25 5d 3e 3e 2e dd dd 3d de 8e 89 3e 95 61 ad bd
       0.1859022 0.10833202 0.26866812 -0.08465878
0003e0 28 57 90 3e cf e1 4e 3d f6 e6 91 bd 6d a9 7c be
       0.28191495 0.050508317 -0.071241304 -0.24674006
0003f0 ea 8d 65 3e 3c dc 33 3e 37 68 5f 3e 37 7a 53 3d
       0.22417417 0.17564481 0.21817099 0.051630225

fc3.bias f4 [4]
000000 20 7d 83 3e 90 60 0c 3e 07 b8 28 3e 30 3d d8 3d
       0.256814 0.1370871 0.16476451 0.105585456
