checkpoints/double_dqn_v1_checkpoint.pth (torch_old, 28409 bytes, 6 tensors)

fc1.weight f4 [64, 37]
0	0xbd6457d2	-0.055747814
1	0x3e4b354f	0.19844554
2	0xbe3404e3	-0.17579989
3	0xbe2d500f	-0.16925071
4	0xbe12eef5	-0.14348967
5	0xbd19ef82	-0.037581928
6	0xbe31ac68	-0.17350924
7	0x3d9d83f6	0.07691185
8	0xbdad0229	-0.08447678
9	0x3e80f444	0.2518636
10	0xbe64307a	-0.22284117
11	0x3d48f6f0	0.049063623
12	0x3d7e0954	0.062020615
13	0xbec598ee	-0.3859324
14	0x3d99dd8a	0.07512958
15	0xbd254acb	-0.04035453
16	0xbd940884	-0.07228187
17	0x3dabecfb	0.0839481
18	0xbdc14ead	-0.09438834
19	0xbda0bc2c	-0.07848391
20	0x3e0f66ca	0.14004055
21	0x3c847213	0.016167676
22	0x3df1b1ae	0.11801468
23	0xbd3c7bec	-0.04601662
24	0xbe8194d7	-0.25308868
25	0x3cc0e0d7	0.023544712
26	0xbd5cb26f	-0.053881105
27	0x3daa5dcd	0.08318672
28	0x3dded6e1	0.10880829
29	0xbe59418a	-0.21216407
30	0x3d3bf71c	0.04588996
31	0xbd27197a	-0.04079578
32	0x3e643c54	0.22288638
33	0x3e171e15	0.14757569
34	0x3ef51b28	0.4787228
35	0x3bbafc60	0.005706355
36	0xbd69ee98	-0.057112306
37	0xbea32768	-0.31866002
38	0xbe079522	-0.13240483
39	0x3dc78c9c	0.09743616
40	0x3c9ab4fa	0.018885124
41	0x3d354dae	0.044263534
42	0xbe6de5be	-0.23232171
43	0x3e3bf3fb	0.1835479
44	0x3bedc95d	0.0072566704
45	0x3def36b9	0.116803594
46	0xbd1a0c8d	-0.037609626
47	0x3c865a4b	0.016400477
48	0x3ddd0267	0.10791474
49	0x3d9394b3	0.072060965
50	0xbe214f0d	-0.15752812
51	0x3db49560	0.088175535
52	0xbe1a964e	-0.15096399
53	0x3d9c4f5c	0.07632324
54	0xbd458ffa	-0.04823301
55	0x3b2b0245	0.0026093882
56	0x3cc4d289	0.024026172
57	0xbc7abf72	-0.015304433
58	0xbe2a0809	-0.16604628
59	0x3c4315e7	0.011907077
60	0x3e286b84	0.16447264
61	0x3e63bbac	0.2223956
62	0xbe9a5dd0	-0.30149698
63	0xbe289364	-0.16462475
64	0xbd39244f	-0.045200642
65	0x3cf86d9d	0.030325705
66	0xbbc305d9	-0.005951625
67	0xbe19386c	-0.1496293
68	0xbe1d2ba7	-0.15348683
69	0x3d1bb80d	0.03801732
70	0x3e6e6d99	0.23283996
71	0x3e9bdfd0	0.30444193
72	0xbe1d2945	-0.15347774
73	0xbd938616	-0.07203309
74	0x3dcd7b0b	0.10033234
75	0x3cf9de0b	0.030501386
76	0xbdb90aec	-0.09035286
77	0xbd858dd2	-0.06521191
78	0x3b4c0b47	0.0031134652
79	0xbd366c80	-0.044537067
80	0x3e12003e	0.14257905
81	0x3d049bae	0.03237503
82	0x3e9afbe7	0.3027031
83	0x3e62646c	0.2210862
84	0xbdffc0d8	-0.12487954
85	0xbe2f75af	-0.17134736
86	0x3aa7f395	0.0012813682
87	0x3dd445b0	0.10364854
88	0x3b52e8b9	0.003218217
89	0x3e852616	0.2600562
90	0xbe8c7aa0	-0.27437305
91	0xbd6bf1a5	-0.057603497
92	0xbcf76112	-0.030197654
93	0xbe825c51	-0.25461057
94	0xbd1ff82f	-0.039055046
95	0xbc87e19c	-0.016587071
96	0x3e2f86bf	0.17141245
97	0xbcbb347e	-0.022852179
98	0x3e28fd91	0.16502978
99	0x3d6c51e9	0.057695303
100	0x3d5688d5	0.052376587
101	0xbe4624f3	-0.19350033
102	0xbe14c3de	-0.14527842
103	0xbec708ab	-0.388738
104	0xbd197c40	-0.03747201
105	0xbd1fd9e7	-0.039026167
106	0x3cede642	0.02904046
107	0x3dc4d10a	0.096101835
108	0x3e8610f5	0.26184812
109	0xbd343f24	-0.044005528
110	0x3d3204c7	0.043461587
111	0x3cd6105f	0.026130853
112	0x3c896ccb	0.01677551
113	0xbb789201	-0.0037928822
114	0xbcb48a8b	-0.022038719
115	0x3e0b275d	0.13589235
116	0xbe444f3f	-0.19170855
117	0x3e3c38ec	0.18381089
118	0x3e8c7718	0.2743461
119	0x3e5a7768	0.21334612
120	0x3f95bb58	1.1697798
121	0x3da9de28	0.08294326
122	0x3e118f0c	0.14214724
123	0x3d0fc2e4	0.03509797
124	0x3e1699d1	0.14707114
125	0xbb12d26b	-0.002240325
126	0x3d97dddd	0.07415364
127	0x3ddec4ce	0.10877381
128	0x3d86a93e	0.06575249
129	0x3e1ad788	0.15121281
130	0x3de39a29	0.11113388
131	0xb977ae84	-0.00023620768
132	0x3cc4e488	0.024034753
133	0xbc239a9b	-0.009985591
134	0xbc28c678	-0.010301225
135	0xbd9576bf	-0.0729804
136	0x3e0fc266	0.14039001
137	0xbe1aa855	-0.15103276
138	0x3c9fd47c	0.0195105
139	0xbcc918d1	-0.024547966
140	0xbe13e146	-0.14441404
141	0xbd922eab	-0.071378075
142	0x3acaf1da	0.0015483454
143	0x3e32e8ac	0.1747157
144	0x3e1ad4c1	0.15120222
145	0xbcf4f7a7	-0.029903246
146	0xbd3503d7	-0.044193115
147	0x3b9635a7	0.0045840326
148	0xbd577d18	-0.052609533
149	0xbe9848b0	-0.29742956
150	0xbe125f93	-0.14294271
151	0x3cc99eef	0.024611918
152	0xbea4fdda	-0.32224923
153	0x3dd9eda8	0.106410325
154	0x3c968589	0.018374221
155	0x3e144966	0.14481124
156	0xbd774b5d	-0.060374606
157	0x3e51e0ac	0.20495862
158	0x3e244adb	0.1604418
159	0xbe437e19	-0.19091071
160	0x3cd88897	0.026432319
161	0xbdc3ddde	-0.09563802
162	0xbf00fcfe	-0.50386035
163	0x3e3d5c89	0.1849233
164	0x3e3027a6	0.17202625
165	0x3dc386d0	0.09547198
166	0xbda95050	-0.082672715
167	0xbc578d84	-0.013156299
168	0x3d3fc4b4	0.04681845
169	0x3db1e008	0.08685309
170	0x3dfe8eff	0.12429618
171	0xbe3af328	-0.18256819
172	0xbe87b059	-0.2650173
173	0x3d7539a1	0.059869412
174	0x3cc0cca4	0.02353508
175	0xbe9e3868	-0.3090241
176	0x3cc780b4	0.024353363
177	0xbcf2284d	-0.029560233
178	0x3e02b583	0.12764554
179	0x3c0b6c9b	0.00850978
180	0x3e2de023	0.16980033
181	0x3c92b28c	0.017907403
182	0xbe22727f	-0.1586399
183	0xbe25c2b6	-0.16187558
184	0xbcd2b5e0	-0.02572149
185	0xbc1f6bc7	-0.009730286
186	0xbe5c3f31	-0.2150848
187	0x3e88e5a6	0.26737708
188	0xbc524525	-0.012833868
189	0xbcf757d8	-0.030193254
190	0x3db83aca	0.08995588
191	0xbe9307fa	-0.28717023
192	0xbce7319b	-0.028221896
193	0x3e485668	0.19564211
194	0xbe444d67	-0.19170152
195	0x3cbf6cc6	0.023367297
196	0x3df518af	0.11967599
197	0xbdc02512	-0.093820706
198	0x3cc0685c	0.023487262
199	0x3da35831	0.079758056
200	0xbdcf2ed9	-0.10116357
201	0x3e13dca3	0.14439635
202	0x3d652a46	0.05594852
203	0xbe01d21e	-0.1267781
204	0xbdf5cfaa	-0.120024994
205	0x3dad1842	0.084518924
206	0xbd9602fe	-0.073247895
207	0xbca08aba	-0.0195974
208	0x39af5bb2	0.0003344692
209	0x3e9eacca	0.30991203
210	0xbe543c48	-0.2072612
211	0x3ce76529	0.02824648
212	0x3e7318af	0.23739885
213	0xbe24e6f8	-0.16103733
214	0x3cd8c1fa	0.026459683
215	0x3c3a472d	0.011369509
216	0x3e5ea763	0.2174354
217	0xbde0ac09	-0.10970313
218	0xbcec5e03	-0.028853422
219	0xbe20a9da	-0.15689793
220	0xbd227d95	-0.039670546
221	0xbdc25eeb	-0.094907604
222	0x3cb3a65b	0.02192991
223	0x3cb8eeb9	0.02257477
224	0x3ddfcf99	0.10928268
225	0xbe7b0f95	-0.24517663
226	0xbe504a25	-0.20340784
227	0xbe18243a	-0.1485757
228	0xbdcbb490	-0.09946549
229	0x3dc33e59	0.09533376
230	0x3c1c934f	0.0095566055
231	0xbebd26f8	-0.36943793
232	0xbde379d5	-0.11107222
233	0x3c2e0702	0.010621788
234	0xbdd7ba6c	-0.10533604
235	0x3db42454	0.087959915
236	0xbc12c3dd	-0.00895783
237	0x3e1bfcae	0.15233108
238	0xbe955b44	-0.29171193
239	0x3bce80eb	0.0063019893
240	0xbc249548	-0.010045357
241	0xbedd4f17	-0.43224403
242	0xbdfad152	-0.12246956
243	0xbde7231b	-0.11285993
244	0x3e8f7201	0.28016666
245	0x3d5d992f	0.054101165
246	0x3e135f09	0.14391722
247	0xbceacc42	-0.02866185
248	0x3de6a876	0.112626
249	0x3dea49f9	0.114398904
250	0xbde36527	-0.11103278
251	0xbe4c74ff	-0.19966505
252	0x3e835a35	0.2565476
253	0xbe6d8615	-0.2319568
254	0xbbe33e68	-0.0069349296
255	0xbe351d49	-0.17686953

fc1.bias f4 [64]
0	0x3e04b17b	0.12958328
1	0xbe3c20ba	-0.18371859
2	0xbe328607	-0.1743394
3	0xbdf2d724	-0.11857441
4	0x3da882d4	0.082280785
5	0xbd26de10	-0.04073912
6	0x3db5ad85	0.08870987
7	0xbdd03b4b	-0.10167559
8	0xbc22c2dc	-0.009934153
9	0xbe270150	-0.16309094
10	0x3cc462ba	0.023972858
11	0xbd85a6a5	-0.065259255
12	0x3e222ddc	0.15837806
13	0xbdc31ec7	-0.09527355
14	0xbcedd256	-0.02903096
15	0x3e0ec740	0.13943195
16	0xbb85eae8	-0.004086841
17	0xbda5bc9a	-0.080926135
18	0xbdc219fd	-0.09477613
19	0xbdb11b44	-0.08647779
20	0x3d02436d	0.031802583
21	0x3e2a17a6	0.16610584
22	0x3ddb1021	0.10696436
23	0x3ddd2dff	0.10799789
24	0xbdcebcda	-0.10094614
25	0x3c772c48	0.015086241
26	0xbc87974e	-0.01655164
27	0xbe00a964	-0.12564617
28	0x3c83a587	0.01607014
29	0x3e474979	0.19461621
30	0xbd2bc030	-0.04193133
31	0x3e3d09f8	0.18460834
32	0x3d8b210d	0.06793413
33	0x3d215886	0.039391063
34	0xbdca4602	-0.09876634
35	0xbe6388b0	-0.22220111
36	0xbcc86c03	-0.024465567
37	0xbe2bf310	-0.1679194
38	0x3d8c99ca	0.068652704
39	0x3d3c7812	0.046012945
40	0x3d7f7263	0.062364947
41	0x3d93db73	0.07219591
42	0x3e01d30d	0.12678166
43	0x3e5ba7a2	0.21450666
44	0x3dcf0d7f	0.10109996
45	0x3e1464fb	0.14491646
46	0x3da72be2	0.08162667
47	0x3dc83c90	0.097771764
48	0x3c37d133	0.011219311
49	0xbdba0ab5	-0.090840735
50	0xbd88bad5	-0.066762604
51	0xbdb5bd87	-0.0887404
52	0x3e658942	0.22415641
53	0xbc90fda3	-0.017699068
54	0x3ba4ab5f	0.005025312
55	0xbda8e110	-0.08246052
56	0x3da2494a	0.07924135
57	0x3ca01c0a	0.01954462
58	0xbe0c8801	-0.13723756
59	0x3e361553	0.17781572
60	0x3d849e99	0.064755626
61	0xbd674059	-0.05645785
62	0x3d0e8126	0.034791134
63	0x3d0968be	0.033547156

fc2.weight f4 [64, 64]
0	0xbe27a933	-0.16373138
1	0x3e373193	0.17890005
2	0x3dc42883	0.095780395
3	0xbca9b0ea	-0.020714242
4	0xbcd42484	-0.025896318
5	0xbe7cfac6	-0.24705037
6	0xbccb97b4	-0.024852611
7	0x3e61c142	0.22046378
8	0x3d739aef	0.059473928
9	0xbe296c3c	-0.16545194
10	0xbdc29cd1	-0.095025666
11	0x3de0c464	0.109749585
12	0x3dea82d1	0.114507325
13	0x3c9811ff	0.018563269
14	0xbeb717ca	-0.35760337
15	0xbd729078	-0.059219807
16	0xbd1207b9	-0.035651896
17	0xbe0f42c5	-0.13990314
18	0x3e1d854d	0.15382881
19	0xbd567a23	-0.052362572
20	0x3cc01855	0.023449102
21	0x3e19be67	0.15014039
22	0xbc11a87b	-0.0088902665
23	0x3d927b39	0.07152409
24	0xbe37154c	-0.17879218
25	0xbcb92ed9	-0.022605347
26	0xbe97f833	-0.29681548
27	0x3d0bff65	0.03417911
28	0xbeb05a64	-0.34443963
29	0xbe706910	-0.23477578
30	0xbcebfb18	-0.028806254
31	0xbe95902b	-0.29211554
32	0xbe69c62d	-0.22829504
33	0x3ee68772	0.45025212
34	0xbcf61516	-0.030039351
35	0xbd0fb4e6	-0.035084628
36	0xbd711a82	-0.05886317
37	0x3d26dde5	0.04073896
38	0x3d8d985b	0.06913825
39	0xbc2aa112	-0.010414379
40	0xbe507d5e	-0.20360324
41	0xbd716e4e	-0.058943085
42	0xbe81ea32	-0.2537399
43	0xbd9879dd	-0.074451186
44	0xbe9fdaf3	-0.31221732
45	0x3d84c38d	0.06482611
46	0xbe63dd4f	-0.22252391
47	0xbe004d1a	-0.12529412
48	0xbe56b93e	-0.20969102
49	0xbe2d7d4b	-0.16942327
50	0xbe08b81e	-0.13351485
51	0xbe2ac4a7	-0.1667658
52	0xbe8ad79a	-0.27117616
53	0xbe4d7e63	-0.20067744
54	0x3cd0f8b8	0.025509223
55	0xbce64da8	-0.028113201
56	0xbd5c9d21	-0.053860787
57	0x3d45f42e	0.04832857
58	0x3e85ebc3	0.26156434
59	0xbe8e3f23	-0.27782544
60	0xba559268	-0.00081471214
61	0x3d9a3e67	0.075314336
62	0xbd959b2c	-0.07304987
63	0xbdc67871	-0.09690941
64	0xbc86e45f	-0.016466318
65	0xbdc6d0c4	-0.09707788
66	0xbd751612	-0.0598355
67	0xbc033e3c	-0.008010443
68	0x3dab4e87	0.08364587
69	0x3da6ccd4	0.081445366
70	0xbea0658c	-0.31327474
71	0xbde4450f	-0.111459844
72	0xbb3dc018	-0.0028953608
73	0x3de060b3	0.10955944
74	0xbd6b1bc0	-0.05739951
75	0x3db3344e	0.08750211
76	0xbe303c13	-0.17210416
77	0xbb39e52c	-0.0028365357
78	0x3df47ac1	0.11937476
79	0x3d932bff	0.07186126
80	0xbd2488c2	-0.040169485
81	0x3e0ea586	0.1393033
82	0x3d14db36	0.03634187
83	0xbbd9ab77	-0.0066427547
84	0xbe1822f0	-0.14857078
85	0xbe6b29f3	-0.22965221
86	0x3c919e61	0.017775716
87	0xbde2ff32	-0.11083831
88	0x3e077704	0.13228995
89	0xbe2d03fa	-0.16896048
90	0x3df4b485	0.11948494
91	0x3d2f6e63	0.042829882
92	0x3dc5af28	0.09652549
93	0x3d0de6b9	0.034643862
94	0xbdcda0bf	-0.100404255
95	0x3d5d58f8	0.054039925
96	0xbe8a85b7	-0.2705514
97	0xbe27d17b	-0.16388504
98	0x3dd9506d	0.10611043
99	0xbe0f3f23	-0.13988928
100	0xbcb0941b	-0.021554997
101	0xbe418e24	-0.18901879
102	0x3dbd18a2	0.09233214
103	0x3cfe3a0f	0.031033544
104	0xbce0990b	-0.027416727
105	0xbd4eac4f	-0.050457295
106	0xbdbcaac9	-0.09212262
107	0x3dbb8b27	0.091574006
108	0xbde754ef	-0.11295497
109	0xbc98b69a	-0.018641759
110	0xbdc21c40	-0.094780445
111	0x3cf3dfbd	0.029769773
112	0xbe843a52	-0.25825745
113	0xbd8cdfcc	-0.06878623
114	0x3dc27910	0.09495747
115	0x3d8ab2df	0.06772398
116	0xbe3a4afd	-0.18192668
117	0xbbe41d8e	-0.006961531
118	0xbe02b81e	-0.12765548
119	0xbdcade5b	-0.09905692
120	0xbcd1cc45	-0.025610099
121	0x3a1c9173	0.00059726014
122	0x3d8e21a3	0.069400094
123	0x3d83672d	0.064161636
124	0xbee10230	-0.4394698
125	0x3e23a725	0.1598173
126	0x3d85d883	0.06535437
127	0xbd8dc257	-0.06921833
128	0x3d0aae17	0.03385743
129	0xbe3d0fb6	-0.18463024
130	0xbe047616	-0.12935671
131	0xbe63edec	-0.22258729
132	0x3dcb3288	0.099217474
133	0xbd129748	-0.035788804
134	0xbd6f2a9e	-0.058390252
135	0xbe7e5356	-0.24836478
136	0xbdfdb673	-0.12388315
137	0xbdc48d69	-0.09597284
138	0x3e4b154d	0.19832344
139	0xba33d990	-0.00068607274
140	0x3c25026d	0.010071379
141	0xbd86427d	-0.065556504
142	0x3e1a0f79	0.15044965
143	0xbd80e8af	-0.06294381
144	0x3e035f08	0.1282922
145	0x3c6b38ee	0.014356835
146	0xbdd4b0eb	-0.10385307
147	0x3decd659	0.11564321
148	0xbd1cc7a6	-0.038276337
149	0xbc8b1143	-0.016976004
150	0x3e23f9cc	0.16013259
151	0xbd90ea17	-0.07075899
152	0xbd9779b9	-0.07396264
153	0xbe01cabe	-0.12674996
154	0xbcb8fb28	-0.022580698
155	0xbdc7f2c3	-0.097631
156	0xbdf78182	-0.120852485
157	0x3e48dfd0	0.19616628
158	0x3d3be564	0.04587306
159	0x3dcb1f8f	0.09918129
160	0xbe127621	-0.14302875
161	0xbe059eb3	-0.1304882
162	0x3e3ac20a	0.18238083
163	0xbd71c294	-0.059023455
164	0x3e08cff8	0.13360584
165	0xbdc734b5	-0.0972685
166	0xbdb0866a	-0.086193874
167	0xbcbd01be	-0.02307212
168	0xbd4fb1eb	-0.050706785
169	0x3d558be2	0.052135356
170	0x3e16cc66	0.1472641
171	0x3da4790a	0.08030899
172	0xbdd4ce07	-0.10390859
173	0x3e3d90cd	0.18512268
174	0xbde243ac	-0.11048064
175	0x3e215d13	0.15758161
176	0xbd5ff6e1	-0.0546788
177	0x3e002631	0.12514569
178	0xbe136e6e	-0.14397594
179	0x3e484f61	0.1956153
180	0x3e4e7b8b	0.20164315
181	0xbdab29c5	-0.08357576
182	0xbe8c375f	-0.27385995
183	0x3cdfbf5d	0.027312929
184	0xbe675ff4	-0.22595197
185	0x3c3c88ef	0.011507257
186	0x3dbb2b70	0.091391444
187	0xbe241a78	-0.16025722
188	0x3cb4611e	0.022018965
189	0xbe135524	-0.14387947
190	0x3d9a6fbb	0.07540842
191	0x3c88e076	0.016708594
192	0x3de30c7e	0.11086367
193	0x3d35d598	0.044393152
194	0xbd02897b	-0.031869393
195	0xbd8e6617	-0.06953066
196	0xbdb45398	-0.08805007
197	0xbe2298fa	-0.15878668
198	0xbc5dc0f5	-0.013534774
199	0xbcb1173c	-0.021617524
200	0x3dde23fd	0.10846708
201	0xbe3a57bb	-0.18197529
202	0x3dabc41f	0.083870165
203	0xbdce4875	-0.10072414
204	0x3c8aa01d	0.016922051
205	0x3e2cc6c4	0.16872698
206	0x3df08c8c	0.11745557
207	0xbd3ca12f	-0.046052154
208	0x3df2a5f8	0.11848062
209	0x3d806309	0.062688895
210	0xbe63337f	-0.22187613
211	0x3ca2934a	0.019845624
212	0xbbf765b5	-0.007549966
213	0xbd08b246	-0.03337314
214	0x3d7f9b58	0.062404007
215	0xbe76ae27	-0.24089871
216	0x3c34e810	0.011041656
217	0xbdc34cc9	-0.0953613
218	0xbe3e84d7	-0.18605362
219	0x3c870a2e	0.016484346
220	0xbd0e4d63	-0.03474177
221	0x3cf92b9d	0.030416304
222	0xbc8a1001	-0.016853334
223	0x3dcb798e	0.09935294
224	0x3b6fe27a	0.0036603496
225	0xbe240a5a	-0.16019574
226	0xbd276e11	-0.040876452
227	0xbe376e28	-0.17913115
228	0x3e332ccc	0.17497557
229	0x3e54cef5	0.20782073
230	0xbe95dfac	-0.2927221
231	0xbd459387	-0.048236396
232	0xbd837e72	-0.06420602
233	0x3dd6f958	0.10496777
234	0x3cb501f9	0.022095667
235	0xbd1bf653	-0.03807671
236	0x3cf11e6d	0.029433453
237	0x397cdc36	0.00024114628
238	0x3be8615e	0.007091685
239	0x3ab3ee8d	0.001372771
240	0xbe6522de	-0.22376582
241	0x3de086ec	0.10963234
242	0xbe278be0	-0.16361952
243	0xbd10f4bb	-0.035389643
244	0x3e7cbfc9	0.24682535
245	0xbd6e69a2	-0.058206208
246	0xbe6b4c5e	-0.2297835
247	0x3cda5eba	0.026656497
248	0xbdeb1fa7	-0.114806466
249	0xbdca4c34	-0.09877816
250	0xbd6f0e45	-0.058363218
251	0xbde1862f	-0.110119216
252	0xbe187f50	-0.14892316
253	0xbe11e664	-0.14248043
254	0xbdac04d8	-0.08399361
255	0xbcb2dd3c	-0.021834008

fc2.bias f4 [64]
0	0x3dceb161	0.10092426
1	0x3df411ad	0.11917434
2	0xbc2b9383	-0.010472181
3	0x3d27bc61	0.040951136
4	0x3d869c5a	0.065727904
5	0xb9c2e306	-0.0003717171
6	0x3e7987a1	0.24368145
7	0x3e35a1bd	0.1773748
8	0xbd6a0f2e	-0.057143383
9	0xbe0ff355	-0.14057668
10	0x3e18eb91	0.14933611
11	0xbd54a08a	-0.051910914
12	0x3d684bce	0.056712918
13	0xbd5cf577	-0.05394503
14	0x3d38aae7	0.04508486
15	0x3e002196	0.12512812
16	0x3d67a1fd	0.05655097
17	0xbc855c9c	-0.016279511
18	0x3cba0156	0.022705715
19	0xbce17c52	-0.0275251
20	0x3e12043c	0.14259428
21	0x3d30c82a	0.04315964
22	0x3da57792	0.08079447
23	0xbdc2177c	-0.094771355
24	0xbc8d4ad2	-0.017247591
25	0xbc512b75	-0.012766709
26	0x3dadcff7	0.08486932
27	0x3dbe42fb	0.09290119
28	0x3db7c832	0.08973731
29	0x3cabd1f4	0.020974137
30	0xbc227c0e	-0.009917272
31	0x3b89f28d	0.0042098225
32	0xbd1fc13d	-0.039002646
33	0x3e2e7e29	0.17040314
34	0xbe062f42	-0.13103965
35	0xbcdc7b25	-0.026914189
36	0x3dc48b5b	0.095968924
37	0x3e3d16a0	0.18465662
38	0x3d6a8e85	0.057264823
39	0xbdef2828	-0.11677581
40	0xbd2dce68	-0.042433172
41	0x3e766a70	0.2406404
42	0xbb0f68f4	-0.0021882625
43	0x3d816460	0.06317973
44	0xbcb9741a	-0.02263837
45	0x3dcb8ef1	0.09939373
46	0xbd5a5a19	-0.05330858
47	0xbda650da	-0.0812089
48	0xbd2d189d	-0.0422598
49	0x3d44b367	0.048022654
50	0xbd24bf1c	-0.04022132
51	0x3e20f04b	0.15716664
52	0x3c8f8753	0.017520582
53	0x3dfd3597	0.12363737
54	0x3d5786c7	0.052618768
55	0x3d086da4	0.033307686
56	0xbd2610dc	-0.040543422
57	0xbd9910af	-0.07473885
58	0x3cbdd41d	0.023172433
59	0xbda439bd	-0.08018825
60	0xbe1acb69	-0.15116657
61	0x3dc2a6c3	0.095044635
62	0xbd0190c0	-0.031632185
63	0x3d9aeb7f	0.075644486

fc3.weight f4 [4, 64]
0	0xbe4470d7	-0.1918367
1	0xbeaba8ba	-0.33527166
2	0x3e293e78	0.16527736
3	0x3db7828a	0.08960445
4	0x3d242632	0.04007549
5	0xbde00b56	-0.10939662
6	0x3dacb7ec	0.08433518
7	0x3e1b18c1	0.15146162
8	0x3e3d1ca0	0.18467951
9	0xbe596037	-0.2122811
10	0x3e16515f	0.14679478
11	0x3e332ebe	0.174983
12	0xbe0a3dc8	-0.1350013
13	0x3d1ecd24	0.038769856
14	0xbe3f9363	-0.18708567
15	0x3e47c9b2	0.19510534
16	0x3d7685a1	0.060186032
17	0x3e5f2a4d	0.2179348
18	0xbee603cf	-0.4492478
19	0xbe980b3e	-0.29696077
20	0xbe00f77d	-0.1259441
21	0x3e5295ce	0.20564958
22	0x3e07bdf1	0.1325605
23	0xb9f43302	-0.0004657731
24	0xbe761653	-0.24031954
25	0xbe9aada4	-0.30210602
26	0xbe9842f6	-0.29738587
27	0xbe402883	-0.18765454
28	0xbda9f626	-0.08298902
29	0x3e8b6e04	0.27232373
30	0x3dc3ebad	0.09566436
31	0x3dca289e	0.09871028
32	0x3e8d6b7b	0.27621064
33	0x3e1c513a	0.1526536
34	0xbb26b378	-0.0025436562
35	0xbe05d67f	-0.13070105
36	0x3e84d68f	0.25944945
37	0x3dcf2794	0.10114971
38	0xbf0d230d	-0.5513161
39	0xbd06c784	-0.032905117
40	0x3e52efaf	0.20599245
41	0x3df16f23	0.11788776
42	0x3de810c4	0.11331323
43	0xbe9db10a	-0.30799133
44	0x3eaaddc7	0.33372328
45	0x3cd66ad4	0.026173986
46	0x3dca1b71	0.09868515
47	0xbdc72eab	-0.09725698
48	0x3d8f0c45	0.06984762
49	0x3db16324	0.08661488
50	0xbbc2d33c	-0.0059455913
51	0xbcd0dfab	-0.025497278
52	0x3db63425	0.088966645
53	0x3e8270cf	0.2547669
54	0x3e1f4caf	0.15556596
55	0x3ea70bd4	0.32626212
56	0x3e6ac73f	0.22927569
57	0xbe1babeb	-0.152023
58	0xbc261501	-0.010136844
59	0xbd7bf84f	-0.061516102
60	0x3e310a01	0.17288972
61	0x3e8d3124	0.27576554
62	0x3dc21e5c	0.09478447
63	0xbdbca20e	-0.09210597
64	0xbcd90c1b	-0.02649503
65	0x3b83ca22	0.004021899
66	0x3dd80bf0	0.10549152
67	0x3e51ff81	0.20507623
68	0x3e42cece	0.19024202
69	0xbc9d67e1	-0.019214572
70	0x3e0426c0	0.12905407
71	0x3e31fbc3	0.17381196
72	0x3dea7d52	0.11449684
73	0xbdcfa3e9	-0.10138685
74	0x3de24ab3	0.11049404
75	0x3e7c3833	0.24630813
76	0xbd35b232	-0.044359393
77	0x3d879735	0.06620637
78	0x3d0bc381	0.034121994
79	0x3e4c924c	0.19977683
80	0xbdec8b6b	-0.11550029
81	0xbdc008a5	-0.09376649
82	0xbd72509b	-0.059158903
83	0xbd7b3f69	-0.06133977
84	0x3c6c7f34	0.014434624
85	0x3eaa3f87	0.33251593
86	0xbdb5e3a9	-0.08881313
87	0xbcc0b1cf	-0.023522286
88	0xbd588875	-0.05286451
89	0xbd4133b2	-0.04716844
90	0x3d898913	0.06715598
91	0x3dd1b646	0.10239844
92	0xbd08f375	-0.033435304
93	0x3e64db51	0.22349288
94	0xbb44168e	-0.002992067
95	0x3da5153c	0.08060691
96	0x3dced999	0.10100097
97	0xb9a4e734	-0.00031452777
98	0xbe66b6b2	-0.2253063
99	0xbcb13acb	-0.02163448
100	0x3e7df272	0.24799517
101	0x3e0e529f	0.13898705
102	0xbe0f4153	-0.13989763
103	0xbed246f7	-0.41069767
104	0x3e2f9692	0.17147282
105	0x3e0f9bed	0.14024325
106	0xbe29cdd5	-0.16582425
107	0x3e0b347c	0.1359424
108	0x3e91d06e	0.28479332
109	0x3db6f60a	0.08933647
110	0x3e17212d	0.1475875
111	0xbd823943	-0.06358578
112	0xbd8a5c51	-0.06755889
113	0x3da2a99d	0.079425074
114	0x3d32d48f	0.043659743
115	0x3bb3837a	0.0054783197
116	0x3e04f924	0.12985665
117	0x3de697ef	0.11259448
118	0x3e7bead7	0.24601303
119	0xbc7dfe8b	-0.015502582
120	0xbd76d2e4	-0.060259715
121	0x3d35835e	0.044314735
122	0x3e8a0e80	0.26964188
123	0xbe227fc5	-0.15869053
124	0xbe21201d	-0.15734906
125	0x3ea58690	0.32329226
126	0x3e2cd1c8	0.168769
127	0xbde7d97b	-0.11320778
128	0x3e831129	0.2559903
129	0x3bb8f3b5	0.0056442865
130	0xbd4fec0c	-0.05076222
131	0x3dbb7cb4	0.091546446
132	0x3f017ed3	0.50584143
133	0xbed71b82	-0.42013174
134	0x3e20f89a	0.15719834
135	0x3d6283c4	0.055301443
136	0x3dc6dc55	0.09709994
137	0xbbca7cb6	-0.0061794175
138	0xbe176b3a	-0.14786997
139	0xbd22bd05	-0.039731044
140	0x3e06d0ed	0.13165636
141	0xbdc72587	-0.09723955
142	0xbb7db1f1	-0.0038710798
143	0x3e75b776	0.23995766
144	0x3d7f8487	0.062382247
145	0x3e94ca48	0.29060578
146	0xbd35d65c	-0.044393882
147	0xbdc459ba	-0.095874265
148	0xbd77e17f	-0.060517784
149	0xbe81b7b6	-0.25335473
150	0x3d43095c	0.047616348
151	0x3e74a79a	0.2389206
152	0xbe2a1457	-0.16609322
153	0xbec0a4b0	-0.37625647
154	0xbebe72fb	-0.37197098
155	0x3dcc771c	0.09983656
156	0x3d7d422e	0.061830692
157	0x3e0a7d06	0.13524255
158	0x3e159384	0.14607054
159	0x3e8a683b	0.27032647
160	0x3c559b59	0.013037526
161	0x3e15c04f	0.14624141
162	0x3c015575	0.00789391
163	0xbf037238	-0.5134616
164	0x3e1e067d	0.15432163
165	0x3d9f53f5	0.077796854
166	0x3d6284d0	0.05530244
167	0x3d8a8add	0.06764767
168	0x3ec3fa2e	0.3827681
169	0x3e270b9c	0.16313022
170	0xbe6a0f79	-0.22857465
171	0xbdae3877	-0.085068636
172	0x3e9bfacc	0.3046478
173	0x3db9141e	0.0903704
174	0x3d896024	0.067077905
175	0xbd4c2014	-0.04983528
176	0x3e4f0bf8	0.2021941
177	0x3e12239e	0.142714
178	0x3e8d40d9	0.27588537
179	0x3db3636c	0.087591976
180	0x3e10c764	0.14138561
181	0x3b6a7c61	0.0035779702
182	0xbd3a42b1	-0.045473758
183	0xbe7aebaf	-0.24503969
184	0x3d6e69d4	0.058206394
185	0xbbd101d2	-0.006378391
186	0x3c16d26e	0.009205444
187	0xbe9f3614	-0.31095946
188	0x3e69f6e5	0.22848089
189	0x3e82cbdc	0.25546157
190	0x3e9a93a3	0.30190763
191	0xbe67c0ba	-0.22632113
192	0xbefeb0c8	-0.49744248
193	0x3d8e414c	0.06946048
194	0xbd0b7775	-0.03404947
195	0x3eb5e780	0.35528183
196	0xbde0b223	-0.10971477
197	0x3d1a5761	0.037680987
198	0x3daf7755	0.08567683
199	0x3e319231	0.17340924
200	0x3d9b19f3	0.07573309
201	0xbe4d738d	-0.2006361
202	0x3e451d55	0.1924947
203	0xbd8fc63c	-0.07020232
204	0xbdf30685	-0.11866478
205	0x3e95c556	0.29252118
206	0xbeab893f	-0.33503148
207	0x3c2925e6	0.010323977
208	0x3d3e3c4a	0.046444215
209	0xbde48d83	-0.11159804
210	0xbdb4edb0	-0.08834398
211	0x3d8a3680	0.06748676
212	0x3de7a33f	0.113104336
213	0xbbeb616b	-0.007183244
214	0x3e779e2e	0.24181435
215	0xbe006ee1	-0.12542297
216	0xbdf9fae7	-0.12206059
217	0xbe1c171f	-0.15243195
218	0x3e0aaedb	0.13543265
219	0x3e356fe2	0.17718461
220	0xbe11ce74	-0.14238912
221	0x3e1a36d1	0.15059973
222	0x3e45f739	0.19332589
223	0x3dc5d87b	0.09660431
224	0xbe0966dc	-0.13418144
225	0x3e0d150e	0.13777563
226	0x3ea1e472	0.31619602
227	0xbd50f77c	-0.05101727
228	0x3db35703	0.087568305
229	0x3e6baa31	0.23014142
230	0x3c42d347	0.011891193
231	0xbd7e4460	-0.062076926
232	0x3e17be4e	0.14818689
233	0x3e4a9f13	0.19787244
234	0xbe018be3	-0.12651019
235	0xbecf3e80	-0.4047737
236	0x3e2f19a4	0.17099625
237	0x3e5d4a76	0.21610436
238	0x3e65a913	0.22427778
239	0xbe513e01	-0.20433809
240	0x3de3ac18	0.11116809
241	0x3e67327f	0.22577856
242	0xbe19c087	-0.1501485
243	0xbe6be9cc	-0.23038405
244	0x3ca8c092	0.020599637
245	0x3db3abee	0.08773027
246	0x3efe8e04	0.49717724
247	0xbe84723f	-0.25868413
248	0xbdb53e58	-0.08849782
249	0x3e1cfa42	0.15329841
250	0x3e12679f	0.14297341
251	0x3db5fd5e	0.088862166
252	0xbbb669e4	-0.0055668224
253	0x3e08de2e	0.13366005
254	0x3e68ccc8	0.22734368
255	0xbcbf091e	-0.023319777

fc3.bias f4 [4]
0	0x3e7c8b7b	0.24662583
1	0x3ddf75e0	0.10911155
2	0x3e20434d	0.15650673
3	0x3dc298d0	0.09501803
