checkpoints/dqn_v2_checkpoint.pth (torch_old, 19500 bytes, 6 tensors)

fc1.weight f4 [64, 37]
000000 a3 10 6a bd 00 03 da 3c 9a 98 41 be 58 0f b5 3d
       -0.057144772 0.026612759 -0.18905869 0.08840817
000010 61 c8 be bd 50 f7 1f 3e bd c1 60 be 6c 2c 88 be
       -0.09315563 0.15621686 -0.21948905 -0.2659639
000020 3a a8 28 bd ca 50 cb bd 31 7a 98 bc 4e 52 5e 3c
       -0.04117606 -0.09927519 -0.018612953 0.013569428
000030 1a 31 1b be 16 cc 05 be 4e a4 ad bd f5 ca 45 3c
       -0.1515545 -0.13066134 -0.08478604 0.0120723145
000040 25 7d 71 bd 2d 2b 82 bc b2 06 5e bd 85 d5 f4 bb
       -0.058957238 -0.015889728 -0.054205604 -0.0074717426
000050 29 5a ee 3c d0 26 e1 3d 08 a7 12 3d e1 8e 1c 3e
       0.029095726 0.10993731 0.035803825 0.15288879
000060 0b 72 96 bd b3 0d 1f be 67 8b 1f b9 ce 20 29 3e
       -0.07345971 -0.1553257 -0.00015215353 0.1651642
000070 eb 26 0b 3e 9f 3a 19 3d ea b7 e2 3d d5 ea be 3d
       0.13589065 0.03740942 0.11070235 0.093221344
000080 49 ac 10 3d 81 de 5e 3d 84 42 63 bd 5c af e9 3d
       0.035320554 0.054411415 -0.055483356 0.114104
000090 ea 9f be bd 76 1c c0 3d ca 0a c6 bd 72 7f 46 be
       -0.09307845 0.093804285 -0.096700266 -0.19384554
0000a0 64 35 e2 bd 2c 41 cc bd bd 8a 12 be 6b 5c 4a 3e
       -0.1104534 -0.09973368 -0.14310737 0.19761817
0000b0 28 68 2b be 43 6d ed 3d ea 3e 17 3e c5 ba 64 bc
       -0.16738951 0.11593106 0.14770094 -0.013960545
0000c0 27 07 4b 3e f3 86 49 bd 8d 01 7d bd 4f 0f 03 bd
       0.19826947 -0.049200963 -0.061769057 -0.03199702
0000d0 db 79 a7 bd 2e 42 92 bd a9 ad b5 bc ce 84 93 bc
       -0.08177539 -0.07141529 -0.022177534 -0.018007662
0000e0 df 29 ca 3d fe 12 f9 bd 28 53 66 bc d2 7c 38 be
       0.098712675 -0.121618256 -0.014057912 -0.18016365
0000f0 f9 ab 58 3e 45 28 85 3e 1e ac 92 be 04 49 b0 bb
       0.21159352 0.26007286 -0.2864694 -0.005379798
000100 46 ed 54 be 19 b9 ad 3d ec 62 44 3e c7 f5 84 be
       -0.20793638 0.0848257 0.1917836 -0.25968763
000110 5b fb 22 be 30 ec 0e 3e 6b c6 18 3e 29 3c 87 3e
       -0.15916197 0.13957286 0.1491944 0.26413086
000120 cd de c0 bd 54 27 d0 bd 4a 3b 79 bb 25 79 fd bd
       -0.09417496 -0.10163751 -0.0038029724 -0.12376622
000130 f6 f6 d6 bd 40 8c d8 bc e6 8e 7b 3e df 50 60 bd
       -0.10496323 -0.026434064 0.2456623 -0.054764625
000140 87 d5 fc 3c a9 a7 1a 3c 55 e5 cc 3d cd 8f 36 3f
       0.030863537 0.009439387 0.10004679 0.7131317
000150 3f cb 22 be 79 61 1f be c7 18 96 bd 34 ca bc bd
       -0.15897845 -0.15564527 -0.07328945 -0.09218255
000160 34 ba 2d 3e 45 c3 a5 bd 76 5d 05 be 4f a6 53 bd
       0.16965562 -0.08093885 -0.13023934 -0.051672276
000170 e7 88 e8 3d 6c 20 b7 3e 92 5c b8 bc 20 2c 87 bc
       0.11354237 0.35766923 -0.022505078 -0.016500533
000180 80 d4 5e 3c 15 45 22 bd b1 a7 19 3e bf 0c f2 bd
       0.013600469 -0.039616663 0.15005375 -0.118188374
000190 f9 2c 5a be f3 d8 18 be 6c 1f 88 3d 67 cf 86 3e
       -0.21306218 -0.1492651 0.06646618 0.2633011
0001a0 62 95 38 3c fa 79 82 be 5a d1 bf bd 6d 8d 4f bd
       0.011266084 -0.25483686 -0.093661025 -0.050671984
0001b0 7e 60 bc 3d e5 0f 89 3c 5b c6 16 3d 07 0c bf be
       0.09198092 0.016731212 0.03681026 -0.37313864
0001c0 ee dd 68 3e c3 ad 88 bd 9f ab 24 be 0c f9 6e bd
       0.2274091 -0.066737674 -0.16081093 -0.05834298
0001d0 8a f8 cf be a5 f4 6c bd 3f ee 93 3e 3e 06 e9 3b
       -0.40619308 -0.0578505 0.28892705 0.00711134
0001e0 e2 bb 84 bf c5 8c 0d 3e da e4 4c 3d 61 b8 7c 3d
       -1.0369837 0.1382323 0.050022937 0.061699275
0001f0 c6 99 c0 bd 34 68 fd be 5e 2a 93 3c 96 55 36 3d
       -0.0940433 -0.49493563 0.017964538 0.044515215
000200 ce e1 2c 3e 67 fb e9 bc ad c1 03 bf 8a f6 46 3d
       0.16883013 -0.02856226 -0.514674 0.04857496
000210 7f 2c 0e bb d3 0f b6 bd 80 45 52 be 51 7a 10 bf
       -0.0021694002 -0.08889737 -0.20534325 -0.5643664
000220 b6 7f e4 bc 03 96 f0 bd 3b d5 00 3e 42 5a 61 be
       -0.027892929 -0.117473625 0.12581341 -0.22007087
000230 3a 13 10 bf 7a e1 46 be 96 9b 2e 3e 92 55 7e 3e
       -0.5627934 -0.1942195 0.17051539 0.2483733
000240 bb 30 55 be 12 69 a2 be 32 d4 e2 bc 87 91 5e 3d
       -0.2081937 -0.31720787 -0.027689073 0.054338004
000250 f5 bd 14 bd a1 97 93 be a9 bf 0c be 30 96 02 bc
       -0.03631397 -0.2882662 -0.13744988 -0.007970378
000260 d1 a8 f0 bd f8 ff 8a bc d2 c2 09 3e 6f 93 e0 3d
       -0.11750949 -0.016967759 0.13453224 0.10965621
000270 2c 51 b9 3d 2b e0 ae 3e 50 59 c3 be 55 9b de 3d
       0.090486854 0.34155402 -0.38154078 0.10869471
000280 21 39 2d 3e 9c 86 26 3e 60 e6 d8 be ee a6 26 3e
       0.16916324 0.16262287 -0.42363262 0.16274616
000290 1a 30 d9 3d b2 b2 43 3e 4d 3a 49 3d 50 50 b2 3d
       0.10604878 0.19111136 0.049127866 0.08706725
0002a0 91 d0 97 bd 0f 44 72 3e c2 92 b9 3b 73 46 a2 bd
       -0.07412828 0.23658775 0.005663247 -0.07923593
0002b0 ce c2 58 bd 93 14 bc 3d 83 4e 2a be db 41 82 be
       -0.052920155 0.09183612 -0.16631512 -0.2544087
0002c0 dd 0e 83 bd 36 68 d3 bd 76 13 58 bc da c6 0b 3e
       -0.06399319 -0.10322611 -0.013188234 0.13650075
0002d0 ab 38 a0 bd 28 0a 72 3d 46 49 5f bc 43 16 a5 bd
       -0.078233086 0.059091717 -0.01362831 -0.08060887
0002e0 dd ce b8 bc 36 fd c8 3d ea ac 66 be 51 f2 f8 bc
       -0.022559578 0.09813921 -0.22526899 -0.030388983
0002f0 a7 cf a7 3c 77 b3 3c bf 9d 5c 0c be a8 cf a0 be
       0.020484759 -0.7371134 -0.13707204 -0.3140843
000300 7f ab ed 3d f8 27 96 3d 15 99 84 3d 38 0d d7 bd
       0.11604976 0.07331842 0.064745106 -0.10500568
000310 63 4c 6e bd 20 b7 8f bd 0d d4 e3 3d df 60 9d bd
       -0.058178317 -0.0701735 0.1112443 -0.07684492
000320 dc d9 5c 3e 5a 6f 40 be 8e ed c1 bd 3a f7 9f be
       0.21567482 -0.18792477 -0.09469138 -0.31243306
000330 74 e9 54 bd ad 69 2b 3d 01 b1 2f be 1f 40 c6 bd
       -0.05198045 0.041848827 -0.17157365 -0.09680199
000340 27 44 11 3e e4 5f 88 3d 2e 02 3b be 03 d9 c8 3d
       0.14186154 0.06658915 -0.1826255 0.09807017
000350 14 57 46 bd 8a b9 02 be 4d 05 83 3e 18 eb 6a be
       -0.048422888 -0.1276609 0.25589982 -0.22941244
000360 e1 4f 3b 3d 84 c1 7e 3d 9c 9d 59 be 22 ff cb 3e
       0.045730475 0.06219627 -0.2125153 0.39843088
000370 8a 89 2a be 97 4e 93 bd 21 fa a0 3d 17 69 45 3d
       -0.1665403 -0.07192724 0.07860208 0.048195925
000380 38 83 b4 3b bd bf 89 be 8e fe 1b be 3d 82 b8 bd
       0.0055088066 -0.26904097 -0.15233824 -0.09009216
000390 f2 55 17 be bf b6 85 bc f4 18 4f bd c6 0b d9 be
       -0.1477888 -0.016322492 -0.050560907 -0.42391795
0003a0 d9 d7 8e be ce 21 1b 3e 32 b5 38 bd 3d 78 40 bc
       -0.27899054 0.15149614 -0.045094676 -0.011747417
0003b0 e8 5b c1 3e b4 fe b1 bd be 89 fe bd 0b f8 11 3e
       0.3776543 -0.08691159 -0.12428616 0.14254777
0003c0 1b ac 8f 3d 10 eb 11 be 55 74 d0 bd bd d4 5b 3e
       0.070152484 -0.14249825 -0.101784386 0.21467872
0003d0 95 ea e5 3d b0 5d 2e bd 00 95 d1 bd ed 1b 58 bd
       0.112263836 -0.042569816 -0.102334976 -0.052761007
0003e0 8e 99 dd 3d 51 c1 88 3d 0c ab 15 bd 4d 06 b0 bd
       0.10820304 0.06677497 -0.036540076 -0.08594952
0003f0 98 97 e9 3e 0d fe 28 bf 13 84 3c be f4 a8 15 bf
       0.4562347 -0.6601265 -0.18409757 -0.58460927

fc1.bias f4 [64]
000000 7a 15 eb 3d b9 97 39 be 58 94 92 be 67 a6 1c be
       0.11478706 -0.18124284 -0.28628802 -0.15297852
000010 0a 5a 72 3d 6c f1 db bd fe 4f 9d 3d 2d 65 41 3c
       0.0591679 -0.10739407 0.07681273 0.011803907
000020 c1 f6 b0 bd 62 02 06 be 81 55 bb bc 3c d9 fc bc
       -0.086408146 -0.13086846 -0.02286792 -0.030865304
000030 78 c9 52 3e bc f3 45 bc 6c 1f 7d bd 16 33 04 3e
       0.20584667 -0.012082037 -0.061797544 0.12910113
000040 43 2d 79 bd b3 c1 3e bd 79 5e 09 be 47 ae 21 be
       -0.06083418 -0.046571445 -0.13414945 -0.15789138
000050 1c b6 ac 3d 85 76 f3 3d 15 6c 15 3d 99 88 3b 3b
       0.08433172 0.1188784 0.03648003 0.0028615354
000060 2e d4 fc bd e5 a8 c2 3d 40 38 d6 3d 61 b7 03 be
       -0.123451576 0.0950487 0.104599476 -0.12862922
000070 7d 0d d8 3d b5 8f 94 3d 76 d3 7b bd c9 d1 37 3e
       0.10549448 0.072539724 -0.06148096 0.1795112
000080 0b bf 8c 3d a6 68 96 bb cb 58 38 bc 0c 54 e4 bd
       0.06872376 -0.004590112 -0.011251639 -0.11148843
000090 46 49 18 be 24 65 be bd 98 68 c7 bd 63 a6 99 3d
       -0.14871702 -0.09296635 -0.097367465 0.07502439
0000a0 80 34 df 3d 2c 84 8d 3d 21 28 d1 3d 96 af 2c 3e
       0.108986855 0.069099754 0.10212732 0.16863856
0000b0 59 9c 36 3e 81 5c 61 3d 27 b2 74 3d fc 1c e6 3d
       0.1783308 0.05501986 0.05974021 0.11235997
0000c0 1c ff ba 3d 92 a9 9f bc c5 14 55 be c7 5c 0a 3d
       0.091306895 -0.019490037 -0.20808704 0.033779886
0000d0 77 bd 41 3e bb e2 79 3d 31 39 82 bd 5e 98 32 be
       0.18919931 0.061007243 -0.06358565 -0.17440936
0000e0 01 de e9 3d 06 62 11 bd 02 0d b3 bd 48 bd c3 3d
       0.11419297 -0.035493873 -0.087427154 0.09557587
0000f0 24 69 12 3d cb 57 a8 bd c2 ef a3 3d 71 10 1f bd
       0.0357448 -0.0821987 0.080047145 -0.03883404

fc2.weight f4 [32, 64]
000000 dc 0a b4 bd 42 ca fa 3c 13 87 80 bd 15 6e 15 be
       -0.08791134 0.030614022 -0.06275763 -0.14592774
000010 58 29 16 3e 42 4d 8c bd 3d f1 e6 bd 5d cb 48 bc
       0.14664209 -0.06850673 -0.11276481 -0.012255517
000020 ce 44 bf 3d f2 22 3a bd 96 04 a2 bd 20 cc 3a 3e
       0.09339295 -0.045443483 -0.07911031 0.1824193
000030 27 79 29 bd ba 6d 8d 3e c1 9f 94 be c9 b6 1a bd
       -0.041375306 0.27622777 -0.29028133 -0.037771974
000040 cf 0d 9a 3e d2 3b ca bd 46 e3 d6 bd d4 66 5b b9
       0.3008866 -0.09874691 -0.10492568 -0.00020923774
000050 49 6c 51 be 06 42 7a 3d 02 aa 82 3e c6 ac 1e 3e
       -0.20451464 0.06109812 0.2552033 0.15495595
000060 a2 aa 44 3d b8 8b 2f be e9 eb 07 be 0f 3d bc 3d
       0.04801429 -0.17143142 -0.13273586 0.091913335
000070 a1 19 b0 bd 77 d8 31 bd 97 10 1f be 3f 55 56 bd
       -0.08598638 -0.043419328 -0.15533672 -0.05232739
000080 69 c2 5c 3e 6d 6e 4e 3e dd 26 6f 3e 4f d5 2b be
       0.21558537 0.20159312 0.23354669 -0.1678059
000090 33 87 9d bd 57 89 cb 3c 1b 3a 49 3e 9a 2d 91 3a
       -0.07691803 0.024845762 0.19651072 0.0011076212
0000a0 28 77 9a 3c 60 74 05 bb 70 5f f5 bd 7c e0 41 be
       0.018855646 -0.0020363554 -0.11981094 -0.1893329
0000b0 f2 8e 1b be cc 00 b8 bc c9 a3 53 bd 7b dc 82 be
       -0.15191248 -0.022461317 -0.05166987 -0.25558838
0000c0 f4 24 a9 bd be d9 2f be 87 a1 08 be a2 5a 59 bd
       -0.082590014 -0.17172906 -0.13342868 -0.05306495
0000d0 6c 6c 00 bf 0e 56 3c bd 52 bb 9a be e9 c4 ee 3d
       -0.5016544 -0.045980506 -0.3022104 0.116586514
0000e0 21 42 67 be a3 6b 4f 3d 4d 2c 4b bd 45 51 19 bd
       -0.2258382 0.05063976 -0.049602795 -0.03743102
0000f0 e4 44 52 be b3 4c e5 3d fb 18 ca 3d 5e dd be bd
       -0.20534092 0.1119627 0.09868046 -0.09319566
000100 b9 3f e5 bc 26 7a ec bd c8 8f 41 3d 3d 1b 4c 3e
       -0.027984487 -0.115467355 0.04725626 0.19932266
000110 7c fd c9 3d ac 5a 16 3e fb 82 50 3e d6 d7 bc bd
       0.098628014 0.14683026 0.20362465 -0.09220855
000120 3c 18 8d 3e 92 ca 71 3e f9 df 25 3d 79 3f 9f bd
       0.27557552 0.2361243 0.0404968 -0.07775778
000130 8d ed 23 be 4b 95 81 3d f1 29 7a 3d 6a d0 23 bd
       -0.16008587 0.063273035 0.061075155 -0.03999368
000140 26 23 71 3e a6 a7 ad 3d 81 b3 b8 be 04 e8 d3 3e
       0.23548564 0.08479242 -0.3607445 0.4138795
000150 42 60 a9 bd 71 a3 b1 be 0a c9 fe 3d 15 ae 9c bd
       -0.08270313 -0.34695008 0.12440689 -0.07650391
000160 62 ad f4 3c b3 35 3c be d0 bb a4 bd 77 5e 04 be
       0.029867832 -0.1837986 -0.08043635 -0.1292666
000170 a8 97 c2 3d da ea a4 bd b0 6a a7 be d7 61 0c 3e
       0.095015824 -0.08052607 -0.32698584 0.13709198
000180 00 d6 98 be ef 47 f5 3d 0c 29 f4 3d c3 1a 84 3d
       -0.2985077 0.11976611 0.119218916 0.06450417
000190 43 e9 20 be e2 4c 02 be da 5a 22 bd 73 10 30 bd
       -0.15713982 -0.12724641 -0.039637424 -0.042984437
0001a0 3f d5 fb 3d 48 ba 58 bd c4 81 aa be a3 76 7e 3d
       0.12296533 -0.052912027 -0.33302128 0.06212486
0001b0 f8 2a 1a bd 59 85 bd 3e b2 8b 2e 3c 1d 93 bd bd
       -0.037638634 0.370158 0.010653423 -0.09256575
0001c0 93 01 1b be 60 ac 5d be 0e 1d 4b 3d 04 46 0f 3e
       -0.1513732 -0.21647787 0.049588256 0.13991553
0001d0 4d e7 80 3e 33 b0 46 bd ba 60 5f 3d 13 ff 3f be
       0.25176468 -0.04850788 0.054535605 -0.18749647
0001e0 47 9b 58 3d b9 1a 76 be 95 4a 0c 3e 03 70 95 bb
       0.05288246 -0.24033631 0.13700326 -0.004560472
0001f0 fa 9c 67 3d 59 b3 5f 3c 3b a3 a2 3d 46 90 dd 3d
       0.05654619 0.0136536 0.0794129 0.108185336
000200 d3 d4 8f 3c 5d 5c 85 be f4 64 31 be 2a df 09 3e
       0.017557537 -0.2604703 -0.17323667 0.13464037
000210 7a 80 bc bc 1d 0c 1e bd b2 ba 88 be 6a aa 0f 3e
       -0.023010481 -0.03858577 -0.26704937 0.14029852
000220 7d 2e 6e be 62 6c 90 be 12 1c 20 3d 41 8e 0a be
       -0.23259921 -0.2820769 0.03908927 -0.13530828
000230 7d 96 c3 bc ab 7e 96 3c 26 68 15 3e 45 12 56 bd
       -0.02387547 0.018370947 0.1459051 -0.052263517
000240 c4 25 f4 3d b2 43 56 be e4 3b 35 bc 9f 3b 62 3e
       0.11921266 -0.20924261 -0.011061642 0.22093056
000250 12 94 cb 3d f7 43 5f be 94 b9 db bd a6 c8 56 bd
       0.099403515 -0.2180327 -0.107287556 -0.052437447
000260 56 9e cb bd 9e ef 6e 3e d5 f8 3b bc 98 af 7e 3d
       -0.099423096 0.23333594 -0.0114729 0.062179178
000270 ff 45 56 be cb 76 b5 3c 71 3c 0a bd 53 37 8c 3d
       -0.20925139 0.022151371 -0.033749048 0.0684649
000280 0b 9f 14 be 14 e6 99 be 56 25 d9 bc 10 d9 13 3d
       -0.14513795 -0.30058348 -0.026507061 0.03609568
000290 e4 40 b0 bd af 3a 50 be 7b fe 93 bb 22 ff 2d 3c
       -0.08606127 -0.20334886 -0.0045164204 0.01061991
0002a0 b2 28 9c bd 5d f0 5e bd 27 bd b9 3d 4c 3d 90 bd
       -0.076249495 -0.054428447 0.09069281 -0.070429415
0002b0 47 54 8d 3d 3d 4a 72 be 7c a2 b4 bd 27 d2 b2 3b
       0.0690084 -0.23661132 -0.08820054 0.005457181
0002c0 bd 29 17 3e e5 21 d0 3d c1 eb 17 be a7 c6 8b 3e
       0.14762016 0.10162715 -0.14836027 0.27299997
0002d0 17 e2 9a 3c 71 1c de 3c 2b 4b a0 be 58 b9 04 3d
       0.018906636 0.027113171 -0.3130735 0.03240332
0002e0 86 f8 8c be 28 61 2c 3e ee 08 55 be 98 ff 87 3d
       -0.27533358 0.16833937 -0.20804188 0.066405475
0002f0 49 8c 9b 3c 1b 97 85 be 06 5d 6d bd bf a6 93 bc
       0.018987792 -0.26091847 -0.057950042 -0.018023847
000300 f2 47 d9 3d 23 44 f8 bd ef 78 9f bd d0 1b 17 3d
       0.106094256 -0.12122371 -0.07786738 0.03689176
000310 7e 32 bd bb b9 33 1c be 5d ed 27 3e ff c8 1b 3e
       -0.0057738414 -0.15254106 0.1639914 0.15213393
000320 8c 91 f6 3d 94 7c a3 be 3f de a0 3d b5 4f de 3d
       0.120394796 -0.31930983 0.0785489 0.10855047
000330 ed 2c ba bd 18 e3 a6 3e 05 71 be 3c 48 b8 a5 3d
       -0.090906 0.32595134 0.023247251 0.080917895
000340 c4 e2 a5 3d 60 be 07 3e 71 a0 a5 3d 3e 88 7b bd
       0.08099893 0.13256216 0.080872424 -0.061409228
000350 b6 b0 43 3c b1 e1 1d 3b e5 f7 cf 3b 5d e6 69 3d
       0.011943987 0.0024090821 0.00634669 0.057104457
000360 16 77 c4 bd 64 31 59 3e 18 d5 8c 3c 0b 1a 57 3e
       -0.09593026 0.21210247 0.017191455 0.21006028
000370 82 e6 df bd 9d a7 8a bd e9 ab 4a bd 1a b7 08 3e
       -0.10932638 -0.06770251 -0.049480353 0.13351098
000380 cd ca 66 3d 9b c2 f4 3c fe 86 6a be d1 dc 13 be
       0.05634575 0.029877951 -0.22903058 -0.14439704
000390 4c cf f7 3d 05 4d 65 3e b0 89 5a bd d9 e3 d6 3d
       0.121000856 0.22392662 -0.053353965 0.10492677
0003a0 bb 28 df be 86 9e cf 3b 09 d4 bb bd ff 94 b3 3d
       -0.43585762 0.006336036 -0.09171302 0.08768653
0003b0 2a 2c d9 3d 2f aa 0d 3e a4 13 c4 3d e0 a6 8d bd
       0.10604127 0.13834451 0.09574059 -0.069165945
0003c0 e5 70 67 3d 95 0e 16 bd 85 2b 65 be 72 0a 20 bd
       0.05650415 -0.036635 -0.22379883 -0.03907246
0003d0 e2 65 e4 be 13 93 06 3e 5e 73 c8 be 84 03 c5 3d
       -0.4460898 0.13142042 -0.39150518 0.09619811
0003e0 5b 96 48 bc 0a 44 06 3d 62 f2 50 bd a1 69 53 bd
       -0.012242879 0.03277973 -0.051012404 -0.051614407
0003f0 db 83 30 3e ce f0 f7 3d 5f 57 4b be b9 f3 87 3d
       0.17237799 0.12106477 -0.19857548 0.06638283

fc2.bias f4 [32]
000000 68 a9 a6 bc dc a3 7b bb dc c1 39 bd 0b e5 29 3d
       -0.020344451 -0.0038397228 -0.045350894 0.041478198
000010 58 20 f6 3d b3 ee 23 3c 78 d0 49 bc 8a 00 db bd
       0.12017888 0.010005641 -0.012317769 -0.10693462
000020 da a0 02 be ea 9f b8 3e cf f2 25 3e 64 d8 85 bc
       -0.12756673 0.36059505 0.16205905 -0.016338535
000030 37 d1 55 3d c8 af 26 3d 5f 4a 75 bd 51 a8 b2 3d
       0.052201476 0.04069498 -0.05988538 0.0872351
000040 50 a3 29 be 18 7d d7 bd a9 5a 00 3e 02 ea 97 3d
       -0.16566205 -0.105219066 0.12534584 0.0741768
000050 58 b9 f9 ba a2 98 58 3e c2 60 b7 3d be a3 6c bc
       -0.0019052429 0.21151975 0.08954002 -0.014443336
000060 6f 69 2a 3d c9 55 3a 3d dc dc 42 3e e7 e3 17 be
       0.041604456 0.045491967 0.19029564 -0.14833032
000070 01 db 00 3e 7d df 31 3c 70 43 02 3c a4 f2 08 3c
       0.12583543 0.010856506 0.007950649 0.008358631

fc3.weight f4 [4, 32]
000000 75 f3 44 be 36 d2 1a 3e 29 f5 52 3e 73 da 59 3e
       -0.19233496 0.15119252 0.20601334 0.21274738
000010 75 29 1a 3d 3a 08 d5 3d 09 2c a6 3e d5 82 a2 3d
       0.037637193 0.1040196 0.3245547 0.079351105
000020 12 3d 55 bd 84 55 17 3e 90 0c 3f 3d c5 b7 f9 bd
       -0.052060194 0.14778715 0.04664284 -0.121932544
000030 a7 85 32 3e f7 41 2d 3e 3b ab 04 3e e1 e7 cc 3e
       0.17433797 0.16919695 0.12955944 0.4002066
000040 ec 17 1d bf a4 ae 7b bd 4b 66 0a 3e 0d 51 c8 be
       -0.61364627 -0.061445847 0.13515584 -0.39124337
000050 11 22 02 bf 86 71 53 bd 76 92 37 3e 96 ef 62 3e
       -0.5083323 -0.051621936 0.17926964 0.22161707
000060 c9 71 1b be cb e5 5f bd 2a 14 31 3e 8a cc 99 bd
       -0.15180124 -0.054662507 0.17292848 -0.07509716
000070 82 46 b5 3e 8e 92 22 3d 2a 4e 07 3e d0 c6 25 3e
       0.35405356 0.039690547 0.13213411 0.16189122
000080 5e 92 bd be 52 00 42 3e 5c f2 b8 3e 51 eb 0b 3e
       -0.37025732 0.18945435 0.36122406 0.13663985
000090 1b 66 17 3e f6 00 35 bc a4 7c 5c 3e ec b7 9e be
       0.14785044 -0.011047592 0.21531922 -0.30999696
0000a0 64 2d 89 bd fa c6 2b 3e 5b d9 00 3e 4e 7d 91 bd
       -0.06698111 0.16775122 0.12582915 -0.07103978
0000b0 21 35 19 3e 2d bd 43 3e 7c 03 cc bd 7f 5b fc 3d
       0.14961673 0.19115134 -0.09961602 0.12322139
0000c0 db eb 25 be f0 ee 29 3e e2 3c 95 3d b0 94 33 bf
       -0.16203253 0.16595054 0.07287003 -0.70148754
0000d0 e7 5d 31 3c 69 3e be 3d 23 df 7c 3e f6 b1 69 3e
       0.010825611 0.092892475 0.24694495 0.22821793
0000e0 1c 74 f6 bd ab ef 29 3e f8 de 52 3d 96 0e 69 3d
       -0.12033865 0.16595332 0.05148217 0.056898676
0000f0 9f ec d3 3e 6d 5b b3 3d cb 3b 36 3e e2 33 fa bc
       0.41391465 0.087576725 0.17796247 -0.030542318
000100 e3 ed 42 be d2 05 8d be bd 40 d2 3d 94 b2 b8 3d
       -0.19036059 -0.27543503 0.10266254 0.09018436
000110 5e 9b 83 3e d1 89 af 3e 47 95 5f 3e d3 0d 75 bd
       0.25704473 0.34284833 0.21834289 -0.059827637
000120 7e 8d ce be be b4 68 3e 14 78 b9 3d 0c ef 1a be
       -0.40342325 0.22725198 0.09056106 -0.15130252
000130 b2 98 d8 be 66 4f c6 3e a4 f8 12 be 75 86 57 3d
       -0.42303997 0.3873245 -0.14352661 0.052618463
000140 80 83 85 be 9b 55 87 be c2 07 0a be 1c 17 88 3b
       -0.2607689 -0.264325 -0.13479522 0.0041531455
000150 21 0f 87 bd 2f 9b db 3d 65 9c d7 3d 99 58 32 be
       -0.065946825 0.10722958 0.10527877 -0.1741661
000160 bb f7 ad be ef 03 d1 3d df 84 e1 bc f2 56 28 3e
       -0.33978066 0.102058284 -0.027529178 0.16439417
000170 65 ee fc 3e 31 6f 16 bd f8 e1 87 3e 87 e6 4b 3e
       0.4940063 -0.036727134 0.26539588 0.19912158
000180 f6 fc d7 3d 46 c3 a4 3d 09 34 0a 3c fe 06 97 3e
       0.10546295 0.08045058 0.008435258 0.29497522
000190 26 71 1c 3e e5 76 8a be 5b 8f d2 3c 17 1b d1 be
       0.15277538 -0.27043834 0.025703123 -0.4084098
0001a0 30 a5 12 3e 0b ce 11 3e f1 49 26 3e 5d 37 92 bd
       0.14320827 0.14238755 0.16239144 -0.07139466
0001b0 1a 8e e8 be b7 fd 2b 3e f4 92 ff bc b8 f3 db 3d
       -0.45420915 0.16796003 -0.031198002 0.10739845
0001c0 a0 98 3f be 7d 41 e6 be f0 1c 4f 3e 60 da 8a be
       -0.18710566 -0.4497184 0.20225883 -0.27119732
0001d0 38 96 e4 bc 48 1e 51 3e cf 0c cd 3e 7b f8 c5 3e
       -0.027903661 0.20421708 0.40048835 0.38666138
0001e0 d3 12 e8 be 48 66 37 3e f1 6b 50 3e 58 8d 33 3e
       -0.45326862 0.17910111 0.20353676 0.17534387
0001f0 b5 14 a7 bd 1c 6e 27 3e 77 f9 58 3e 6f e4 4a 3e
       -0.081582464 0.16350597 0.21188913 0.19813703

fc3.bias f4 [4]
000000 e8 f8 9c 3e 9d b2 82 3e a5 5c a5 3e 40 f7 01 ba
       0.3065865 0.25526896 0.32297245 -0.00049578026
