checkpoints/dqn_v1_checkpoint.pth (torch_old, 28393 bytes, 6 tensors)

fc1.weight f4 [64, 37]
000000 50 ed 45 be 24 8c 63 be e3 17 61 3d 32 80 5a bd
       -0.19328809 -0.22221428 0.05495442 -0.053344913
000010 d2 4b e2 be cf b6 06 be 50 81 21 be 90 41 4a bc
       -0.4419847 -0.13155673 -0.15771985 -0.012344733
000020 f3 9b aa be 48 04 2d 3e 46 17 f9 bc 1e 24 b1 3d
       -0.33322105 0.16896164 -0.030406605 0.08649467
000030 5d 58 3c bf 5b 28 4c be 1f 15 0c 3e 38 92 80 bd
       -0.7357233 -0.1993727 0.13679932 -0.06277889
000040 54 e8 a3 be 28 7e e9 3d 84 94 fd bd 77 d6 a7 bd
       -0.3201319 0.114010155 -0.12381843 -0.08195203
000050 c9 85 65 3e d5 15 f5 bd e9 89 4d bd 30 be d9 3b
       0.22414316 -0.11967055 -0.05018035 0.0066449866
000060 51 cb bc bd a4 87 33 3d 99 2d 1a be 31 8d 4b 3d
       -0.09218467 0.04383053 -0.15056457 0.049695197
000070 73 47 5b 3d 21 cf 58 be e0 a9 3d 3e be 1f ee bd
       0.053534936 -0.21172763 0.18521833 -0.11627148
000080 9c ea b7 3c 5f 9e 0a be 0f cd 9b 3d f7 a7 95 3d
       0.022450738 -0.13536976 0.07607471 0.073074274
000090 4c 29 be bd ac 74 49 be dc a1 0a bd ac c2 14 3e
       -0.092852205 -0.19673413 -0.033845767 0.14527386
0000a0 ef 73 13 be 8e ce 96 be ab ab 98 be 8b d2 5e 3e
       -0.14399694 -0.29454464 -0.29818472 0.21760003
0000b0 0f 0a f6 3d 3b a8 ac be 1f f7 1b 3d f6 05 21 3d
       0.12013637 -0.337221 0.03807747 0.039312325
0000c0 d1 b0 10 3e cc 40 4f bd 24 b1 6f 3d b4 c7 b3 3c
       0.1412995 -0.050598904 0.058518544 0.021945812
0000d0 80 31 81 be cb aa b4 be 81 cd 43 3e 33 8b a1 bc
       -0.25233078 -0.35286555 0.19121362 -0.019719696
0000e0 5b 58 ed be 89 29 e1 3c 55 5c 44 bc 32 a0 0f bd
       -0.46356472 0.027485626 -0.011984904 -0.035064884
0000f0 3c 0d 24 39 16 20 65 3e 2f 22 64 be 01 af 99 be
       0.00015645189 0.22375521 -0.22278665 -0.3001633
000100 25 6c c3 3d a9 78 0e be 0f dd af bd 12 e0 c7 be
       0.09542111 -0.13913216 -0.085870855 -0.3903814
000110 f6 8e 01 bd e3 90 14 3e 22 df 14 3e 49 25 99 3d
       -0.03163048 0.14508395 0.14538243 0.07477815
000120 5d 76 28 3c e4 52 2a bd 85 cd 3d 3d 60 64 ef 3d
       0.010282126 -0.041582957 0.046338577 0.11689067
000130 1d ab 16 3d 64 4e 3c 3d 46 c6 9d 3a 5e 32 fe 3b
       0.03678428 0.045973197 0.001203724 0.007757469
000140 20 27 59 3e a6 3a ec 3d 89 55 23 3e 40 46 62 3c
       0.21206331 0.11534624 0.15950598 0.013810694
000150 06 53 0b be 55 8c be bc e9 5b 5b 3d 0a 92 02 bc
       -0.1360589 -0.023260275 0.05355445 -0.007969389
000160 bf a0 8e 3d 1e bd ae 3e ad 40 34 bf d0 76 a0 bd
       0.06964254 0.3412866 -0.7041119 -0.07835162
000170 bb 0e 31 be 3a 60 84 bf 3d 32 59 bc 3b 29 83 3c
       -0.17290775 -1.0341866 -0.013256607 0.016010871
000180 3e 4c 0d 3e d2 35 15 3d 65 94 12 3e 53 f1 b5 3d
       0.13798615 0.03642828 0.1431442 0.088839196
000190 c9 0f fd 3d 2f 8f 83 be af 37 93 bd 76 43 17 bf
       0.123565264 -0.25695178 -0.07188355 -0.5908731
0001a0 df 43 61 bd a6 d7 a7 3c aa 72 69 3d ff 9e a7 3d
       -0.054996368 0.020488571 0.056994118 0.08184623
0001b0 67 4a 82 3e 03 ed 03 3d 0a 75 b9 3b 12 5f 25 bd
       0.2544739 0.032208454 0.005659704 -0.04037387
0001c0 a4 8f b3 3c a8 ae e8 3c 8c 5f 99 3d 9a de 16 3b
       0.02191908 0.028403595 0.07488927 0.0023020864
0001d0 f8 7f 24 bd 4d e7 75 bc f7 3e 82 3d 47 53 96 3e
       -0.040161103 -0.01500876 0.06359666 0.2936041
0001e0 32 99 45 3e 5d 38 9c 3d 03 3b 1a 3e 0d ab 0c 3e
       0.1929672 0.07627938 0.15061574 0.13737126
0001f0 9c 96 23 3e 12 c5 7e bd c9 41 6c 3e d8 8a 33 3d
       0.15975422 -0.06219966 0.2307197 0.043833584
000200 28 81 95 3d 46 e1 85 3d fb 90 81 be 72 c6 b8 3e
       0.07300025 0.06537108 -0.25305924 0.36088902
000210 e3 fb 16 be 06 85 c1 be 00 5d 01 be 91 f9 6d bf
       -0.14744525 -0.377968 -0.12633133 -0.92958933
000220 e2 6a 86 3d f6 b7 64 3d 20 e8 87 3d 2f 4c a9 3d
       0.06563355 0.0558395 0.06636071 0.08266484
000230 c5 b5 07 bd 33 52 14 3d e9 ef 42 3d 80 29 d4 3d
       -0.033132333 0.036211204 0.047592077 0.10359478
000240 a4 d1 97 bd 57 8a 8a bd 89 14 b2 bb 57 12 e6 3b
       -0.07413033 -0.067646675 -0.005434577 0.0070212292
000250 ef db 47 bd f0 02 69 be d3 8d 1f be 4a 79 7f bd
       -0.04879373 -0.22755027 -0.15581445 -0.06237153
000260 1f 97 27 3d a2 52 30 be c0 39 40 3e 05 50 01 3e
       0.040915605 -0.17219022 0.1877203 0.12628181
000270 21 b3 e7 3d c9 ba 34 3e 1b aa 69 be a6 60 12 3e
       0.11313463 0.17649378 -0.22818796 0.14294681
000280 1c 5e de 3c cf 1d 43 3e 6a 26 13 bd f8 b2 2b 3e
       0.027144484 0.1905434 -0.035925306 0.1676749
000290 79 2f 21 3d 30 40 2b 3c c3 3d bc 3d 4b c5 7c 3e
       0.039351914 0.010452315 0.091914676 0.24684636
0002a0 d1 28 9d 3d c6 0d 03 3e 01 11 90 3d cf fb 67 be
       0.07673801 0.12798223 0.07034493 -0.22654651
0002b0 04 93 21 3d 47 3c 3a 3e 5a fc 84 be 96 40 61 be
       0.039446846 0.18187056 -0.2597378 -0.21997294
0002c0 fc f9 2e be 4e 99 c1 bd f8 47 4d 3e 3a e5 cf bd
       -0.17087549 -0.09453069 0.20046985 -0.10151143
0002d0 9f 4f 7e bc eb 35 90 bc 74 a2 91 bc e5 b7 98 3d
       -0.015521913 -0.017603835 -0.017777659 0.0745695
0002e0 2c 38 61 bd 9a b3 10 3d e9 eb 62 bf 9f c3 66 3d
       -0.05498521 0.03532753 -0.8864122 0.056338903
0002f0 5d 19 3b 3e 60 a7 8d bf f3 29 3c be fd 02 5f 3d
       0.18271394 -1.1066704 -0.18375377 0.05444621
000300 ad 0b 5d be 59 d0 92 3d 69 98 0a 3d 22 70 30 3e
       -0.21586485 0.071686454 0.033836756 0.17230275
000310 2c 93 a4 bc 3c 47 22 bf 1c 14 c1 3c e9 07 06 3e
       -0.020089708 -0.63389945 0.02356916 0.13088955
000320 93 5c 4c bc 6e a0 dd bd 2b 64 d0 bd f4 35 d8 3d
       -0.012473243 -0.10821615 -0.101753555 0.10557166
000330 c7 fc db be 53 82 cf bd c9 fa d4 3d 51 aa 8c be
       -0.4296629 -0.10132279 0.10399396 -0.2747369
000340 e3 4e e7 3d 0c 22 7f 3e 6f 0d d5 3c ce dd 1c 3e
       0.11294343 0.24915332 0.026007382 0.15318987
000350 90 7e a1 be e4 b8 0c be 8d fa cf 3d e3 af ed bb
       -0.31541872 -0.13742405 0.10155211 -0.0072536333
000360 81 64 06 be 6b e7 9e 3c 1d 6e 2f 3e 2e 3a b4 bc
       -0.13124277 0.019397458 0.17131849 -0.022000398
000370 2d f0 40 bd 01 1f 77 bd 02 58 ed bc 3c 7f 25 be
       -0.04710405 -0.060332302 -0.02897263 -0.16161817
000380 43 0d 02 3e 76 c4 ff bd e2 29 ab bd 7d bf 63 be
       0.12700371 -0.12488644 -0.08357598 -0.22241016
000390 da 39 3b 3d 9d 9c 44 3d 77 39 1d 3e 1d 64 2c 3f
       0.04570947 0.04800092 0.15353952 0.6734026
0003a0 5c 3d f5 bc 61 27 2e bc d8 cf da bd d5 3a 66 be
       -0.029936485 -0.010629506 -0.10684174 -0.2248338
0003b0 6d 91 c2 3d af f7 99 3c 27 45 3d be a4 c8 97 bd
       0.09500394 0.018794863 -0.18483411 -0.07411316
0003c0 6d 9f 36 3d 56 a6 dc bd b2 5b cb 3c 74 16 19 be
       0.044585634 -0.107739136 0.024823997 -0.14949971
0003d0 db a6 b9 3b d5 2b ca 3c c8 fe d5 3d 0e 88 29 bd
       0.0056656427 0.024679104 0.10448986 -0.041389517
0003e0 aa f4 d6 3d 0f cd 98 bd 5e 72 30 bd 22 77 7c be
       0.10495885 -0.07460987 -0.04307782 -0.2465482
0003f0 94 0a 81 3d d0 a7 16 be f9 ab d6 3b 06 df 64 bc
       0.06300846 -0.14712453 0.0065512625 -0.013969189

fc1.bias f4 [64]
000000 7a 06 8a 3d bc 7f 08 be 99 bc d7 bd 3b a3 c2 bd
       0.067395166 -0.13329977 -0.10534019 -0.0950379
000010 35 07 9f 3c e5 96 69 bd 26 2a 19 3d ed 41 2b bd
       0.019412616 -0.05702867 0.03739371 -0.04181092
000020 fe a6 9e bc 5b 92 1f be f4 75 0e 3e 55 4c f8 bd
       -0.019366737 -0.15583174 0.13912183 -0.12123934
000030 ea cd 86 3d 25 d6 67 be f3 23 40 bd 8a 28 f7 3d
       0.06582244 -0.22640283 -0.046909284 0.12068279
000040 40 c6 7e bd f6 a1 eb bd b1 52 ea 39 87 01 eb bd
       -0.062200785 -0.11505501 0.00044693568 -0.11474901
000050 1b 1a b7 3d 33 9d c5 3d b2 26 cc 3d 80 68 8d 3d
       0.08940526 0.09649124 0.09968318 0.069046974
000060 59 94 86 bd 01 e1 5d 3d 88 3f 79 bd 6e eb a0 bd
       -0.06571264 0.05416966 -0.060851604 -0.07857405
000070 b3 97 58 3d 7f 1b 0f 3e be ca 8b bc f3 57 fe 3d
       0.052879047 0.13975333 -0.017064448 0.12419119
000080 63 10 24 3e 65 ce c7 3d c8 8b 5c 3c f4 a1 26 be
       0.16021876 0.097561635 0.013461061 -0.16272718
000090 ec 8e 86 bd bd 74 2a be 66 82 12 bd 67 e8 dc 3d
       -0.06570229 -0.16646095 -0.03576889 0.10786515
0000a0 a9 39 64 3d 42 66 34 bd 52 79 39 3e 24 50 56 3e
       0.05571905 -0.044042833 0.18112686 0.20929009
0000b0 df 70 2b 3e f4 a1 d3 3d 1a 1f 16 3e a2 b4 0c 3e
       0.16742276 0.103336245 0.14660302 0.13740781
0000c0 b3 6e 82 bc b8 16 8f bd 26 c2 1b be a0 5c 34 be
       -0.015921926 -0.06986755 -0.1521078 -0.17613459
0000d0 b7 f4 69 3e 52 09 46 3d 38 e6 b3 3c 97 71 af bd
       0.22847258 0.048348732 0.021960363 -0.085665874
0000e0 e4 24 ca 3d f3 b8 22 bc 42 08 56 be b3 3e 1f 3e
       0.098703176 -0.009931791 -0.20901588 0.15551262
0000f0 c0 bd 46 3d 26 ea b1 bd 8a 31 6f 3c 70 58 19 bc
       0.048520803 -0.086872384 0.014599213 -0.009359464

fc2.weight f4 [64, 64]
000000 71 22 01 bd e6 4a af 3d d5 bb a2 3e 02 96 01 3e
       -0.031526987 0.085592076 0.3178393 0.1265488
000010 f2 2a 39 bd 67 f9 14 3e ae 44 64 be ee 66 2f 3d
       -0.04520697 0.14548264 -0.22291824 0.04282277
000020 d7 a4 bb 3d 6b 9c 21 be 61 a4 84 3b 35 c3 24 3d
       0.091623 -0.15782325 0.004047916 0.040225226
000030 02 3b 98 3e 04 be e7 3d df 17 98 bd de d8 2c 3d
       0.2973252 0.113155395 -0.07426428 0.04219901
000040 ce 2d c2 bd 1e b1 b6 3e e3 f7 42 3d 36 4e 51 3e
       -0.09481393 0.35682005 0.047599684 0.20439991
000050 f8 30 c6 3e 1e 2d aa 3d 80 e4 a5 3e a5 ba 32 bd
       0.38709235 0.08309387 0.32400894 -0.04363503
000060 44 70 c3 bd 92 3f 60 3d 00 24 f8 be 3d 0b 1a 3e
       -0.09542897 0.054748125 -0.48464966 0.1504335
000070 67 cc a1 bc 8a 6e 41 be 79 85 14 be ea 82 8d 3d
       -0.019750787 -0.18889824 -0.14504041 0.069097355
000080 8e 3f 37 3e 93 f4 f0 bd d5 91 d3 3e fc f6 11 be
       0.17895338 -0.11765399 0.413222 -0.14254373
000090 a3 ef 0d bf 6b 20 82 bd e6 61 2b 3e 21 c2 b2 bd
       -0.5544378 -0.063538395 0.16736564 -0.087284334
0000a0 28 db 22 be 3d fa ba 3b d5 72 f5 bd 26 46 8b bd
       -0.15903914 0.0057061003 -0.11984793 -0.06800489
0000b0 7a 9c c6 3c 09 77 28 3e c7 0b 36 bd 1b 03 00 3d
       0.024244536 0.16451658 -0.044444826 0.03125296
0000c0 db 06 a0 be a8 6a c1 bc d2 7f c4 bd 93 5f 00 3d
       -0.3125523 -0.023610428 -0.09594692 0.031341147
0000d0 63 dc 03 be df c7 f0 3c ed b5 12 be 37 0c ca 3d
       -0.1287704 0.029392181 -0.14327212 0.09865611
0000e0 c5 83 ba bc 8f f6 c4 3d 77 3e 2d 3e 12 1a cd ba
       -0.02276791 0.0961734 0.1691836 -0.0015648028
0000f0 03 c5 d6 be 0a 5d 33 3e 1f 21 0c bd 5d c6 e4 bd
       -0.41947183 0.1751596 -0.034211274 -0.11170647
000100 e8 e7 5a 3c 6d 29 96 bd 60 51 cf 3c 7f af c0 bd
       0.013360955 -0.0733212 0.025307357 -0.09408473
000110 8c f6 e1 3d c8 0f b0 3d 3d 9c 93 bc 41 28 8b bc
       0.11033353 0.0859676 -0.018018836 -0.016986968
000120 a3 3f f9 3d 56 3e 8f 3d 02 bb 21 3d 12 48 21 3d
       0.12170341 0.069943115 0.039484985 0.039375372
000130 f2 ed 5c 3c eb d2 d2 3d 20 23 82 3d 90 93 13 3d
       0.013484465 0.10294136 0.06354356 0.0360294
000140 0a ad 66 3d e8 6d 7a 3d 31 c0 3d bd 7c 2b 37 bc
       0.056317367 0.06113997 -0.046325866 -0.011179801
000150 67 c3 87 be 4b 53 f0 bc 49 0c 0d be 0e 5a 29 bc
       -0.26516268 -0.029336592 -0.13774218 -0.010336412
000160 00 73 03 bb 0c f5 cf bd fa 21 5a 3c 31 99 50 3d
       -0.002005756 -0.10154161 0.013313765 0.050927345
000170 43 39 41 3d 30 c7 86 3c 42 cc 8c 3d cb de ad 3c
       0.04717375 0.016452402 0.068748966 0.0212244
000180 e6 d8 5a 3e 3d c7 0a bf 2e 70 8a 3e 93 24 d3 bd
       0.21371803 -0.54210263 0.2703871 -0.1030971
000190 84 50 03 be 66 68 85 bd f7 d8 a8 bb 55 9e 99 3c
       -0.12823683 -0.06514053 -0.0051528173 0.018752256
0001a0 d7 c4 70 bd 4e bb 73 3d ef d3 1d bf a8 70 3f bd
       -0.05878147 0.0595048 -0.6165151 -0.046738297
0001b0 6d 8f 0a bd 42 97 40 bd 0b 4f 2d 3e 72 70 0d bb
       -0.033828188 -0.04701925 0.16924684 -0.0021581915
0001c0 f1 b5 05 be f0 48 7a bd 4a 11 8f 3d 9a 2c 7f bd
       -0.13057686 -0.061104715 0.069857195 -0.062298395
0001d0 4c 33 0e be b4 88 b4 3d f5 80 5b bc 97 91 91 bd
       -0.13886756 0.088151366 -0.013397445 -0.07107847
0001e0 fb 14 aa 3d ab f4 8a be 7b ec 2a be 44 a8 b5 3c
       0.08304783 -0.27139792 -0.16691773 0.022174962
0001f0 89 66 66 be 35 ee 1d 3d dc 4b 95 3d 61 28 d9 3d
       -0.22500052 0.03855725 0.0728986 0.10603405
000200 56 8a 3e bc 21 5a 5c be d6 9f e6 3d b2 ef 30 3e
       -0.011629662 -0.21518756 0.11260955 0.17278937
000210 8a 7d 41 3d ff 88 c7 3d 05 1b 8a be e1 0b 95 be
       0.047238864 0.09742927 -0.2697374 -0.29110625
000220 88 72 f7 39 bb fb 04 bc 12 c1 9f 3d 06 2e 23 be
       0.00047196844 -0.008116658 0.07800497 -0.15935525
000230 48 41 ae bd 45 a0 dd 3a 85 29 6e 3d 6f 04 80 3d
       -0.08508545 0.0016908726 0.058145065 0.06250846
000240 c2 2a f6 3d aa a8 5d 3e f0 b6 12 be b9 45 6d 3d
       0.12019874 0.21646371 -0.14327598 0.05792782
000250 00 cf 4c be db af 27 be 8e ce 8b 3e 11 bf 2d 3e
       -0.20000839 -0.16375677 0.27306026 0.16967417
000260 4a 67 a9 bd 42 4f a5 be 68 e2 9e bd a9 62 a9 bd
       -0.08271654 -0.3228703 -0.07758027 -0.08270771
000270 93 77 a5 bd 9f fd b3 be 59 54 58 3d 1f 52 3a bc
       -0.080794476 -0.35154435 0.052814815 -0.011372118
000280 53 5a 1c 3d 60 a9 d0 bd 5a dd 94 3e c8 a3 b0 be
       0.038172077 -0.10188556 0.29075128 -0.34499955
000290 33 3e 09 bd 42 4b 72 bd 35 4b 32 bd 2b fc cb 3c
       -0.033506583 -0.059153803 -0.043528754 0.024900516
0002a0 b6 bf 9d be ce 19 0a 3e 34 91 9a bd 9a 1b 85 bd
       -0.30810326 0.13486406 -0.075472265 -0.06499405
0002b0 b9 45 ad bd 23 6d d5 3d 4c 50 c6 bd 98 a7 6f 3e
       -0.08460564 0.10421207 -0.09683284 0.23403776
0002c0 21 d5 43 3e a6 1b 14 bd ff cd 2e be e9 42 8a 3d
       0.19124271 -0.03615918 -0.17070769 0.06751043
0002d0 48 10 3d 3e 58 27 34 be 87 47 31 bd 23 c0 2f 3e
       0.18463242 -0.17593133 -0.043281104 0.17163138
0002e0 12 c2 73 be 61 90 0d 3e fc 03 39 be 7b b9 bc bd
       -0.238045 0.13824607 -0.18067926 -0.09215065
0002f0 2b fc 9b 3e df ef 86 be 02 33 81 3d 98 ca c9 3d
       0.30465826 -0.26354882 0.06308557 0.09853095
000300 39 79 95 3d 92 d0 84 be 58 7f fa 3d de 89 81 3d
       0.07298512 -0.25940377 0.1223132 0.06325124
000310 4a a7 5c b9 44 37 11 bd d0 58 03 bc 11 84 87 3e
       -0.00021043155 -0.035453096 -0.00801678 0.26467946
000320 ab dd ac bd 40 ec 18 be d4 43 99 3d df 46 98 3c
       -0.08440717 -0.14933872 0.0748364 0.018588481
000330 a2 e8 cd 3d a5 f7 d4 be 40 f7 51 bb a1 81 a9 3d
       0.10054137 -0.41595188 -0.0032038242 0.08276678
000340 07 5a ee 3d 2b f3 9b 3d 46 bc 55 bd a9 30 f8 bb
       0.11638265 0.0761474 -0.052181505 -0.00757416
000350 a1 3e 13 3f de ea d5 bd 59 bd 50 3e 0c 46 71 be
       0.5751744 -0.10445188 0.2038473 -0.23561877
000360 fa ed 1f be 53 b2 4b be 15 42 c3 bd e6 b2 f4 3d
       -0.15618125 -0.19892244 -0.095340885 0.11948185
000370 0f 3f be bc 16 57 1a be 14 b4 a9 bd 12 46 7a be
       -0.023223428 -0.15072283 -0.082863 -0.24440792
000380 fa 4a 84 3c bd 7c e5 bd 02 0a 63 3e f3 10 97 bd
       0.016149033 -0.112054326 0.22171786 -0.0737628
000390 0a af 52 be de 56 e9 3b d6 80 c1 bc 94 86 d5 3c
       -0.20574585 0.007120951 -0.023621004 0.026065148
0003a0 cd af 03 3c 5c d6 34 3d c6 59 b9 be 65 59 7a 3d
       0.00803752 0.04414974 -0.36201304 0.06112041
0003b0 ee f8 f8 bc 75 f7 a0 3d 4c b1 59 3e 41 93 bd bc
       -0.030392136 0.07859699 0.2125904 -0.023141505
0003c0 24 a8 cf bd da 7f 93 3d b9 f4 2f be c7 7f 29 be
       -0.10139492 0.0720212 -0.17183198 -0.1655265
0003d0 9f 2e 5f 3d 71 ad 47 3b 30 c1 1b be 45 72 0e 3c
       0.05448782 0.003046837 -0.15210414 0.008694236
0003e0 81 98 68 bd fb 99 64 3e f8 79 b6 bd 41 4c ea bd
       -0.056786064 0.22324364 -0.089099824 -0.114403255
0003f0 5d d6 8f bd 21 5e 1a bd be 10 a5 bc 0b 1b 2d bd
       -0.070233084 -0.037687425 -0.020149585 -0.04226212

fc2.bias f4 [64]
000000 89 45 26 3d 77 29 37 3e 2b 85 a5 3c 08 40 08 3e
       0.040593658 0.17886911 0.020205101 0.13305676
000010 c9 06 d2 3d 84 c4 04 3d e0 7b 20 3e ef f9 75 3d
       0.102552004 0.032413974 0.15672255 0.06005281
000020 2c dd 71 bd dc 77 34 be e0 96 62 3d 7e bc b4 bd
       -0.059048817 -0.17623848 0.055319667 -0.088250145
000030 46 bd 6c 3b 07 c4 7e 3d b7 4f 89 3c de 99 af 3d
       0.0036123558 0.062198665 0.016761644 0.0857427
000040 4d 05 09 3e c1 19 5f 3b 55 44 24 bc a1 a0 09 bd
       0.13380928 0.003404245 -0.010026057 -0.033600453
000050 af 55 26 3c 6e be c4 3d 94 b7 1e bc a4 05 12 be
       0.0101522645 0.09606634 -0.009687323 -0.14259964
000060 40 93 a4 bd 96 ad 0a 3c d7 62 e7 3c 6d 0d ac 3d
       -0.08035898 0.008464238 0.028245373 0.08400998
000070 1a 07 96 3d 33 1f c0 bd d5 21 70 bb 10 31 ff 3d
       0.07325573 -0.09380951 -0.003664126 0.1246053
000080 3e af 48 bd ed f2 8b 3e dc ec 52 be ff c7 82 bd
       -0.04899525 0.27333775 -0.20598167 -0.063858025
000090 89 d7 a4 bd 3d c5 e5 3d ee 4a e3 3d d3 c5 de bd
       -0.080489226 0.11219261 0.11098276 -0.10877576
0000a0 d1 3e 8c bd 75 25 bc 3e f4 03 f7 bc 30 ad 7f bd
       -0.06847919 0.36747327 -0.030153252 -0.062421024
0000b0 c6 90 aa bd 1f 56 44 3e 57 0d 27 be c1 21 fb bd
       -0.083283946 0.19173478 -0.16313682 -0.122622974
0000c0 af 2c 68 bd 6d c3 e9 3d ab 72 25 3d 63 47 de 3d
       -0.05668324 0.11414228 0.04039256 0.1085346
0000d0 04 df f9 39 9c e7 c3 3e ba 7c 13 3d f8 62 79 bd
       0.0004765914 0.3826264 0.03600762 -0.0608854
0000e0 11 7d c4 bd 34 29 c9 bb 97 70 14 3d d8 a5 81 bd
       -0.09594167 -0.006138945 0.036240187 -0.0633046
0000f0 80 d6 5f bd b9 c9 65 3e 84 64 f2 bc f2 66 a8 3d
       -0.054647923 0.22440232 -0.029588945 0.0822276

fc3.weight f4 [4, 64]
000000 94 b4 1a be 7f 31 1a be e3 e5 2b 3d 34 59 ca 3e
       -0.15107948 -0.15057944 0.041967284 0.39521182
000010 32 a9 b0 bc c9 ad 32 3d f0 08 b2 3d 7e e9 ff 3d
       -0.021565054 0.043622766 0.08693111 0.12495707
000020 a9 2f 75 3d 2d 2f a2 be 95 80 45 3e be 00 8a 3e
       0.059859905 -0.31676617 0.19287331 0.2695369
000030 99 b5 65 39 c9 bd 5d 3e 0c af a7 bd 25 ca 46 3e
       0.00021906792 0.21654429 -0.081876844 0.1941305
000040 bb b2 53 3d cb b1 be 3e 27 2d 3c be 7f 40 d4 be
       0.051684123 0.3724502 -0.18376599 -0.41455457
000050 00 0c db 3c 90 fb 34 3e 07 ce be bd 77 f5 30 bd
       0.02673912 0.17674088 -0.0931664 -0.043202844
000060 2d 07 10 be 75 75 21 be e3 7e cd be d1 db 3f be
       -0.14065237 -0.15767463 -0.4013587 -0.18736197
000070 9d a6 5c be c3 dc 42 3e 6f ac 30 3a 1c cf 1e 3e
       -0.21547933 0.19029526 0.0006739562 0.15508693
000080 f5 cf ad 3e 0f 83 c4 3d c9 0f 32 be b3 7e 39 be
       0.3394772 0.0959531 -0.17388834 -0.18114738
000090 48 bb 14 be a8 8e 05 bd f1 f3 c1 be 1e aa d3 3c
       -0.14524567 -0.03260675 -0.37881425 0.025837954
0000a0 37 aa 28 3e 34 4b 2e 3e 4b 36 f8 bd 8e 0f 92 be
       0.16471182 0.17020875 -0.121197306 -0.28527492
0000b0 7c 41 34 3e 17 bf 19 3d 4a e5 1d 3e 82 0f 24 be
       0.17603105 0.037535753 0.15419498 -0.16021541
0000c0 4e f8 c3 3e 3d 28 c0 3d cd 1a 14 3d d6 c5 72 bd
       0.3827538 0.09382675 0.03615837 -0.059270702
0000d0 c1 e2 b1 3c 67 fe 3a 3e f7 fb 15 3e d9 32 a8 3d
       0.02171457 0.1826111 0.14646898 0.082128234
0000e0 f7 e6 9d 3d 4b 85 cc 3d cb 6e a1 3d 86 23 84 be
       0.07710069 0.09986361 0.0788246 -0.25808352
0000f0 ad 70 e6 3d 77 a5 19 3e 03 db 50 3e 0c 97 2a 3b
       0.1125196 0.15004526 0.20396046 0.0026029972
000100 8d 9d c2 3e 37 97 e2 3d 44 8e 2c 3e 7a 32 a1 3e
       0.38010827 0.11063998 0.16851145 0.31483823
000110 71 bc 1f 3e 86 a8 d2 3d af de c3 3d df 4d 0e 3e
       0.15599228 0.102860495 0.09563958 0.13896893
000120 fc f3 3e 3e 18 d4 36 bd b1 93 6b 3e 6d 19 ed 3d
       0.1864776 -0.044635862 0.23005559 0.11577115
000130 fc 22 c8 3e f8 35 eb 3d d5 3d 8e 3e 66 c5 45 3e
       0.3908919 0.11484903 0.2778155 0.19313583
000140 f6 22 be ba 68 b8 62 3e b9 b6 19 be 88 4e c2 3e
       -0.0014506269 0.22140658 -0.1501111 0.3795054
000150 ed 8f 5f 3d c5 b6 7c 3e 5b 30 7d be e3 20 04 bd
       0.054580618 0.24679096 -0.24725477 -0.032257926
000160 16 80 e1 bd 72 22 23 3c 2f a8 f5 be 65 a9 28 bd
       -0.110107586 0.009956943 -0.47979876 -0.041177172
000170 91 c8 7f bd d1 61 95 3e a8 a3 07 3d 10 5c 94 3d
       -0.062447134 0.2917619 0.03311506 0.07244122
000180 66 42 7d 3e 1b bc 44 3d 97 06 87 bd ea a7 5a bd
       0.2473236 0.048030954 -0.06593054 -0.05338279
000190 cd b5 e0 bd 7e 4b 56 bd a2 15 15 3c ef 27 ec bd
       -0.10972176 -0.05231809 0.009099396 -0.11531054
0001a0 7d 00 ee bd 93 d6 45 3e af 70 08 be a6 e4 21 be
       -0.11621187 0.19320135 -0.13324235 -0.15809879
0001b0 08 06 90 3d 23 5b e3 3d 04 58 1a bd 5f 49 f0 bd
       0.070324 0.11101367 -0.037681594 -0.117327444
0001c0 cf ca 6c 3e 60 7a 2f 3e 00 57 32 3e 62 cb 0f be
       0.2312424 0.17136526 0.17416 -0.14042428
0001d0 a1 84 46 3e 7d a0 20 3e ed fe fa 3d 32 4e 00 3e
       0.19386531 0.15686221 0.122556545 0.12529829
0001e0 ac b0 dc be ca 67 a7 3d d2 7f 09 3e f0 1b 99 be
       -0.4310354 0.08174093 0.13427666 -0.29904127
0001f0 47 fc 7d 3d 77 2b 2a 3e f4 32 97 be a8 e0 03 3e
       0.06200817 0.16618143 -0.29531062 0.12878668
000200 47 74 cd 3e 38 cb c1 3d ff ab 91 3d 5f 74 88 3e
       0.40127775 0.09462589 0.07112884 0.26651284
000210 07 5f b9 3e 32 ba 80 bd db 73 c2 3d ec a6 c0 3b
       0.36205313 -0.06285514 0.09494754 0.0058792736
000220 c8 c4 5e be 19 07 83 3c a5 42 6c 3e 2d bf 38 3e
       -0.21754754 0.015994595 0.23072298 0.18041678
000230 ff 28 cb 3e 08 8e ec 3d ad b6 a9 bd 26 00 b4 3e
       0.39679715 0.11550528 -0.08286796 0.35156363
000240 6b 0e 9d 3d 69 95 76 3e 16 41 6a be 31 93 35 bd
       0.07668766 0.24080433 -0.22876391 -0.044329826
000250 28 c6 b4 bd eb 8f e5 3d a3 56 87 be 3a d3 92 3d
       -0.08826858 0.11209091 -0.26433286 0.071691945
000260 27 b0 08 bb a6 d0 25 be a2 b6 c7 3e 49 c7 4a 3c
       -0.0020856948 -0.16192874 0.39006525 0.012376615
000270 4b 1b 44 be 09 c0 44 3e 4d 21 bf 3e 41 17 07 3e
       -0.19151036 0.1921388 0.37330094 0.13192464
000280 2e 93 f8 3d 55 55 04 3e 4d 78 99 be 48 ae 4e be
       0.12137447 0.12923177 -0.29974595 -0.2018367
000290 ce 24 36 bd 6f f4 0e 3e 3d 4f cf be ed 94 b7 3c
       -0.044468693 0.13960432 -0.40490142 0.02240988
0002a0 38 84 28 bd 85 52 1d 3e 91 b0 46 be 6d db 9c 3e
       -0.04114172 0.1536351 -0.19403292 0.3063616
0002b0 3b 8a 83 3e a8 61 fe 3d 0d 75 b9 bd 42 a2 8a bd
       0.256914 0.1242097 -0.09055529 -0.067692295
0002c0 28 0d 0b 3d 62 b8 ff 3d 8f 40 9a 3c 7d 28 c8 3d
       0.033948094 0.1248634 0.018829612 0.097733475
0002d0 9c 33 1b 3e 2b 12 24 3e b5 7b 0a be d1 1b 41 be
       0.15156406 0.16022556 -0.13523753 -0.18858267
0002e0 08 09 66 3e 3c db 81 3d e0 f2 63 3e 29 d9 73 bd
       0.22464383 0.06340644 0.22260618 -0.059533272
0002f0 8a 0d a0 3e 86 d4 35 3e 84 65 f6 3d dd be 48 be
       0.3126033 0.17756853 0.12031081 -0.19604059
000300 20 2b 9d be 4d a5 2c 3e 99 5e 20 3e b8 58 92 3e
       -0.30696964 0.16859932 0.15661086 0.28583312
000310 84 ad 02 bd 9a 06 12 3c 00 90 33 3e 89 21 69 3e
       -0.03190376 0.008912707 0.175354 0.22766699
000320 a4 be 58 be 99 dd 07 be 23 a5 06 3e 32 82 fd 3d
       -0.21166474 -0.13268127 0.13148932 0.123783484
000330 0e 4f cb 3c 0a d2 d7 3d 50 f4 87 be 7c 2b c8 bc
       0.02481797 0.10538109 -0.26553583 -0.024434797
000340 37 b0 c4 3d 88 9a a4 bd c2 78 25 bd 5b 54 ac 3e
       0.09603923 -0.08037287 -0.040398367 0.33658108
000350 34 09 70 3e c2 57 e4 3d 20 58 e6 bd be 28 a1 bd
       0.2344101 0.11149551 -0.11247277 -0.07869099
000360 af a4 51 be 9f 03 86 be c3 98 90 bd 96 1e e1 3d
       -0.20472978 -0.26174638 -0.07060387 0.10992162
000370 e7 8a 14 bd 72 b8 5f bd f9 2f 2c 3d 82 fa 52 3e
       -0.03626528 -0.05461926 0.042037938 0.20603374
000380 8d e5 10 3e ba 14 1c 3e b3 53 93 3c 69 d0 ca bd
       0.14150067 0.15242282 0.017984247 -0.09903032
000390 17 7f 68 bd 82 cc 10 3e e7 59 99 bd 73 c8 67 be
       -0.056761827 0.14140514 -0.07487851 -0.22635059
0003a0 6c 86 5a 3e e5 97 32 3e 1d 8f bc bd 26 9b 7b bd
       0.2134034 0.17440756 -0.09206984 -0.061427258
0003b0 dd 16 d3 be b3 a5 18 3e 0c 9a e5 3d 21 51 c0 be
       -0.4122838 0.14906959 0.11211023 -0.37561896
0003c0 e6 d4 8e 3e 79 7f 66 3c 91 24 83 3e 0c 64 40 be
       0.27896804 0.014068478 0.25613835 -0.18788165
0003d0 5e 7a 3c bd 53 b0 08 3e 13 18 ef 3e 6b 70 56 bd
       -0.046015136 0.13348512 0.46698055 -0.052353304
0003e0 88 3a 89 3e 3e 7b ab 3e 5e d8 32 3e 87 0c a4 be
       0.26802468 0.33492464 0.1746535 -0.32040808
0003f0 3a ea ad 3d b7 99 73 3e f9 82 56 3d 06 45 c9 3d
       0.08491941 0.23789106 0.052371 0.09827618

fc3.bias f4 [4]
000000 67 c9 9a 3e 37 32 2a 3e 78 fa 52 3e 67 58 11 3e
       0.30231783 0.16620718 0.20603359 0.14193879
