checkpoints/dueling_dqn_v1_checkpoint.pth (torch_old, 45853 bytes, 9 tensors)

fc1.weight f4 [64, 37]
000000 3f a1 91 bd cc 5f eb bc 7a 7a 95 bc 40 93 71 3d
       -0.071108334 -0.028732203 -0.018246878 0.05897832
000010 06 17 78 bd d8 34 61 3e 39 73 5d be be cf 43 be
       -0.06056883 0.21992815 -0.21625985 -0.19122216
000020 c6 cb 74 be 0b 16 ee be 81 64 dc bc 35 03 37 3c
       -0.23905858 -0.46501192 -0.026903393 0.011170198
000030 3a 92 e7 bd d0 f7 fb bc 76 37 37 3c 1d 9d 5f bd
       -0.113071874 -0.030757815 0.0111826565 -0.054593194
000040 c8 2f ac bd 6a a7 f1 3c 60 53 93 3d 28 a6 d7 3d
       -0.08407551 0.029498775 0.07193637 0.10529739
000050 ee 57 4a 3e 38 8b 98 3d f7 7f a0 bd cd 20 11 3e
       0.19760105 0.07448429 -0.07836907 0.14172669
000060 4d cb 13 3e 5d 10 40 3c e8 0a 26 bd 10 86 32 3e
       0.14433022 0.011722651 -0.040537745 0.17433953
000070 f9 f4 0f 3e 3f bb ee bd 70 4c e5 3d d0 a0 07 3e
       0.14058293 -0.11656808 0.1119622 0.13244939
000080 71 92 e4 3d a9 a4 2c 3e 03 51 4b 3e 97 24 82 3c
       0.11160744 0.16859688 0.19855122 0.015886588
000090 2b 86 25 bd 1a 03 83 3d 28 e2 88 be c2 4e a9 bd
       -0.040411156 0.06397076 -0.26735044 -0.08266975
0000a0 df 64 e4 bd 28 4d bf be a1 bd b2 3c b8 95 4b 3e
       -0.11152052 -0.37363553 0.021818938 0.19881332
0000b0 ef 82 00 be 11 84 f0 bd 8f 03 93 bc 91 13 1e 3e
       -0.12549947 -0.1174394 -0.017946033 0.15437151
0000c0 1e ff a1 bd 35 34 cf be 8c 1f af 3c 98 63 02 be
       -0.07909988 -0.40469518 0.021377347 -0.12733305
0000d0 9c 3e 82 bc 88 24 29 3e 4d 57 ac be d9 6a 08 be
       -0.015898995 0.16517842 -0.33660355 -0.13322009
0000e0 99 ab b4 bd 3e 8f 6b 3e 4c 62 5e be 44 83 b2 be
       -0.08821792 0.23003861 -0.21717185 -0.34865773
0000f0 36 2f 2d be 51 c0 4f 3e f0 88 41 be e3 1a 7e bd
       -0.16912541 0.20288207 -0.18899894 -0.06203736
000100 78 72 be bd 6a 77 c4 bd 22 46 a1 bd ad 7b 6c 3d
       -0.09299177 -0.09593089 -0.07874705 0.057735134
000110 20 59 1b be 1a 75 80 be 55 b3 8d 3d 9c 1a 16 be
       -0.15170717 -0.2508934 0.069189705 -0.14658588
000120 24 44 71 be d0 11 77 bd a8 f0 78 3d 0c 4b 84 bd
       -0.2356115 -0.06031972 0.060776383 -0.064596266
000130 a9 ec e1 3d a5 79 59 be ab de d3 bc 9d 1a 23 3d
       0.110314675 -0.2123781 -0.025863012 0.039820302
000140 15 22 01 3e 0d 43 08 3e 83 e1 09 be 84 1c 5b 3e
       0.12610658 0.13306828 -0.13464932 0.21397597
000150 9a 20 69 bd 58 d8 4a be 0e c9 49 bd 80 66 a7 3d
       -0.056915857 -0.19809091 -0.049264006 0.08173847
000160 fa b3 93 3d 0d cf 14 3e 76 45 8b be fe f0 0a 3e
       0.07212062 0.14532109 -0.27201432 0.13568494
000170 c8 04 ab bd ea b0 86 3c 46 bc d4 3d a4 63 17 be
       -0.08350521 0.016441781 0.10387473 -0.14784104
000180 5c 05 dc 3d 6d 5c a3 3c bf a6 d5 3c e5 f2 4f 3d
       0.1074321 0.019941533 0.026080487 0.05076875
000190 08 c9 1f 3e b9 65 96 be 9d e6 1a be 16 c9 bc be
       0.15604031 -0.29374483 -0.15127034 -0.36872166
0001a0 be 76 60 bd 5d 45 cf bd dc 1d d6 3d 41 d4 3f 3d
       -0.05480074 -0.10120652 0.10454914 0.04683328
0001b0 ac 3d fc 3d 9d 41 b8 bd 5d 55 ac 3c e7 e2 34 bc
       0.123164505 -0.0899689 0.021036798 -0.011040426
0001c0 9b 41 81 3d 0c c3 9c 3c 88 25 5c bc 54 b1 36 3d
       0.063113414 0.019135974 -0.0134366825 0.044602707
0001d0 5f 54 04 bd 99 8c 8a bc fc c1 d6 3d e2 4b bf 3d
       -0.032307025 -0.016912745 0.10486218 0.093406454
0001e0 06 ec a6 3d 2e b9 36 3d 88 c7 1d 3e 75 25 f8 3d
       0.08150487 0.044610195 0.15408146 0.12116519
0001f0 e4 2b e6 3d 59 81 44 3d d4 95 5f 3e 17 6c 15 3e
       0.1123884 0.047974918 0.21834499 0.14592014
000200 80 b6 82 be c4 16 ca bd ed e9 78 bf 8b 5d c0 3b
       -0.2552986 -0.098676234 -0.9723194 0.005870526
000210 57 8c c1 bc da 21 03 bd 48 82 c1 3c fa a5 97 bd
       -0.02362649 -0.032014705 0.023621693 -0.074047044
000220 fb c9 35 3e e0 30 df be 6a 54 83 3c 4e 07 89 bd
       0.1775283 -0.43591976 0.016031463 -0.066908464
000230 41 89 28 bf d3 21 bf 3c f1 cd e0 3c 10 b5 83 3d
       -0.6583443 0.023331558 0.02744195 0.06431019
000240 15 59 90 3c 78 60 98 3d 82 0c 60 bc 69 00 5a 3b
       0.017620603 0.07440275 -0.013674857 0.0033264405
000250 c7 f1 30 be 6d 56 82 be 42 4d 1a be b0 fd ff 3d
       -0.1727973 -0.25456563 -0.15068534 0.12499559
000260 5f 5d 40 bd 14 14 eb 3d 2d ec aa bc 51 59 32 bc
       -0.046964046 0.11478439 -0.02086457 -0.0108855525
000270 69 0d 4d bb d3 0f db be 7f d0 2a be 3e b6 11 bd
       -0.003128851 -0.4278551 -0.16681097 -0.03557419
000280 6f b7 dc 3b bf 7a 59 3e 4a 4f 8e be b4 c7 ca 3d
       0.006735734 0.2123823 -0.27794868 0.099013716
000290 53 b1 09 3e 12 82 a5 3d c3 8f 3f 3d 9d ca 76 3e
       0.1344655 0.080814496 0.04676796 0.24100728
0002a0 3c 8b c1 3d 4d 9a ba bd 4f fc 4e 3d b8 4b 2a bd
       0.09450385 -0.09111462 0.05053359 -0.041576117
0002b0 7f 77 7e bd 4d ac 18 3d fb 15 fd bd 80 26 12 be
       -0.06212568 0.037273694 -0.12357708 -0.14272499
0002c0 75 fa 9c be 24 8f 4c be d2 2c 02 3e b6 05 83 3d
       -0.30659834 -0.19976479 0.1271241 0.06397574
0002d0 09 02 b0 ba de 1d 37 be 16 13 74 be 71 b8 24 be
       -0.0013428341 -0.17882487 -0.23835406 -0.16085984
0002e0 42 e9 91 bd 69 10 8c bd f1 af 90 bd d0 d1 85 3d
       -0.071245685 -0.068390675 -0.07064808 0.06534159
0002f0 19 78 cb 3d 14 d0 03 be ce 62 c1 bd 48 6b 6e be
       0.09935016 -0.12872344 -0.094426736 -0.23283112
000300 d0 71 d3 3d ad ac fe 3d 54 ea 8d 3d ab b5 af ba
       0.103244424 0.12435279 0.0692946 -0.0013405582
000310 26 9a d6 bc f3 f4 4a be 44 5d 26 3e ed 83 d7 3d
       -0.02619655 -0.19820003 0.16246516 0.1052321
000320 8f 15 90 3d 0e b2 5c bd 3c c1 90 bd e8 43 54 be
       0.07035362 -0.053880744 -0.070681065 -0.20729029
000330 33 44 a7 be 31 ae 11 3e 93 52 28 be 69 e2 8c be
       -0.3266922 0.14226605 -0.1643775 -0.27516487
000340 93 f6 c7 bc 05 2e 0c 3e d1 34 c5 3b 87 08 4f be
       -0.024409568 0.1368943 0.006018259 -0.20218097
000350 c5 8a 06 bc 08 d1 86 bd 7c 4a e3 bc 39 4c 33 bc
       -0.008211796 -0.06582838 -0.027745478 -0.010943466
000360 be 00 87 3c 0f 73 47 be 3c 01 9e bd e0 b6 8d bc
       0.016479846 -0.19477485 -0.07715079 -0.017299116
000370 5c 5e a1 bd 22 53 ea bd 9d 88 9a 3d ab 03 45 3b
       -0.07879326 -0.114416376 0.07545588 0.0030062
000380 1b 9c 1a 3e 14 5f 6c be 94 f7 58 be c7 49 fe bd
       0.15098612 -0.23083144 -0.21188194 -0.12416416
000390 01 84 aa 3d be 55 e5 3d 09 79 20 be 61 08 19 bf
       0.08325959 0.11197995 -0.15671171 -0.5977841
0003a0 c5 ea 95 bd e1 d2 7b 3d 28 e8 31 bd 2f de 88 bd
       -0.07320169 0.061480407 -0.043434292 -0.06683003
0003b0 40 56 09 3d 8d fb 08 bd 12 78 49 bc 7d 11 83 3d
       0.03352952 -0.033443023 -0.012296693 0.0639982
0003c0 90 6d 73 3d cd 1e 9b bd b2 62 4f bd ac 2f 20 3d
       0.05943066 -0.07574234 -0.050631233 0.039107963
0003d0 c5 bc f2 3d 47 28 02 3e f5 65 77 bd 02 c2 82 bd
       0.11852411 0.12710677 -0.06039997 -0.0638466
0003e0 b0 48 06 3e fb 8d 0d 3e 12 55 fe 3d f8 96 e2 bc
       0.13113666 0.13823693 0.124185696 -0.027659878
0003f0 9f 77 b5 3e c4 d9 38 bf 77 e8 3c be 97 a5 c1 be
       0.35442826 -0.72207284 -0.18448053 -0.37821648

fc1.bias f4 [64]
000000 6e ce 2e 3e bb 6e 1c be 09 9d 28 be e3 fc cc bd
       0.17070934 -0.15276615 -0.16466154 -0.10009172
000010 50 8b 1b 3d 7a bf f5 bd 08 8d 20 3e 7a 2f ef bd
       0.037974656 -0.11999412 0.15678799 -0.11678977
000020 21 7a 1f bc 97 55 5e be ec 87 40 3d cb 78 d3 bc
       -0.009733708 -0.21712337 0.047004625 -0.025814435
000030 4d 3e 0a 3e 3c b8 c2 bd a5 b8 7e bc f1 a4 1b 3e
       0.13500328 -0.09507796 -0.015546952 0.15199639
000040 18 25 bb 3a c5 be 84 bd 4e 9f 03 be b0 d5 0e be
       0.0014278023 -0.06481699 -0.12853739 -0.13948703
000050 ac 67 ea 3d 38 40 91 3d 19 4c ca 3d 7c fa fa 3d
       0.11445555 0.07092327 0.09877796 0.12254807
000060 bc ce 0c be 7a 90 29 3d 75 e2 99 bd 43 2a 31 be
       -0.13750738 0.04139755 -0.075138964 -0.17301278
000070 9e 5c 65 3d f2 24 32 3e 40 3a c4 bc 8c bf 56 3e
       0.05599653 0.17396906 -0.023953557 0.20971507
000080 53 d8 0b 3e b5 10 ea bc d9 f5 fa bd 20 c0 24 be
       0.1365674 -0.02857242 -0.12253923 -0.16088915
000090 8f 45 c1 bd e6 63 37 be 5d 97 a0 bc 7c b8 9c 3d
       -0.094370954 -0.17909202 -0.019603426 0.07652375
0000a0 50 fd 1d 3e f3 19 ce bc 21 48 47 3d 7c 05 46 3e
       0.15428662 -0.025158858 0.04865277 0.1933803
0000b0 86 7a fe 3d 6a 1e 01 3e 69 8b 95 3d 89 e8 4b 3d
       0.12425713 0.12609258 0.07301981 0.04978231
0000c0 54 09 63 bc 70 3c af bc 9a 9b 04 be 2f 05 1b be
       -0.0138572045 -0.021391124 -0.12949982 -0.15138696
0000d0 4d d4 ea 3d 33 98 9c 3d d4 a5 5d bd f8 98 f7 bd
       0.114662744 0.07646217 -0.054113224 -0.12089723
0000e0 e0 f8 89 3d 14 f6 93 bc 5a 92 db bd b9 e3 f6 3d
       0.06736922 -0.018061675 -0.10721274 0.120551534
0000f0 26 ba 40 3c c4 67 36 bc a7 75 20 3d 72 ed e0 bb
       0.011763131 -0.011133138 0.039174702 -0.006864243

advantage.weight f4 [64, 64]
000000 13 9b 7a 3d 88 f5 c9 3d 39 28 1f bd 56 8c b3 be
       0.061183047 0.098612845 -0.03885672 -0.35068005
000010 05 2b 86 3c 24 ee f6 3d 9a 00 b9 be 27 43 9a 3e
       0.016377935 0.120571405 -0.3613327 0.30129358
000020 3d a4 d8 3d 11 64 ae bd 85 7e 51 be 0a 6e 0d 3e
       0.10578201 -0.0851518 -0.2045842 0.13811508
000030 9c 56 85 3b bb ae ec 3d cb 84 6a be a5 70 17 bc
       0.0040691625 0.11556765 -0.22902219 -0.009243165
000040 49 2b bd bd 5e 79 4a 3e b2 2f 0f 3e 5e c7 01 bc
       -0.092367716 0.1977286 0.13983038 -0.007921068
000050 58 0d 8f be e7 1e 9f 3d 52 07 49 3d 52 24 09 3d
       -0.27939868 0.07769566 0.049079247 0.033481903
000060 3c f3 33 be 88 0f a2 3d 61 ae 17 be 6d 87 38 3e
       -0.17573255 0.079131186 -0.14812614 0.18020411
000070 af a7 cb be 85 f8 7d be 8a 7f ae bd 18 38 a4 bb
       -0.3977637 -0.24801834 -0.0852042 -0.0050115697
000080 2a 65 5d be 20 77 07 3d 56 e4 ce 3d f5 73 90 bc
       -0.21620622 0.03307259 0.101021454 -0.017633418
000090 db 5d eb bc 12 4c 81 be b4 d3 92 bb 03 84 4b be
       -0.028731277 -0.2525335 -0.0044808034 -0.19874577
0000a0 ab 68 5f be 8a 8c 29 bd ed 4a 93 3d bc 02 3e be
       -0.21817271 -0.041393794 0.07192025 -0.1855573
0000b0 9c 00 45 be 2d 60 31 3e 0e 55 66 bd c8 f0 58 be
       -0.19238514 0.17321844 -0.05623346 -0.21185601
0000c0 aa 9e bd be 39 f6 01 be fe 15 00 3d 46 65 8c bd
       -0.37035114 -0.12691583 0.031270973 -0.06855254
0000d0 ef 8f 37 3d 81 62 e8 bd 83 be 10 be 29 1e aa bd
       0.044815 -0.11346913 -0.14135174 -0.08306534
0000e0 70 7a be bd 29 c4 cb 3d 47 5c c4 bc b9 20 95 bd
       -0.09300697 0.09949524 -0.023969783 -0.07281632
0000f0 be 16 ea bd 58 cf 94 3c 94 5a 6b 3d 87 93 42 be
       -0.11430119 0.018165275 0.05745943 -0.1900159
000100 a8 e0 85 bd 96 c1 75 bd 1e f7 0f 3d 7b 13 12 3c
       -0.065369904 -0.05999907 0.03514778 0.008915777
000110 c4 41 89 3d 29 85 86 3d d3 7d 85 b9 5a cd b4 3c
       0.06701997 0.06568367 -0.00025461483 0.022070576
000120 29 86 08 3d af 55 80 3b ae da ce 3d c6 a6 9e 3d
       0.03333107 0.0039164643 0.101003036 0.07746653
000130 1b b8 d3 be 03 ca 14 3e c4 2b ba 3d a1 cb 1c b8
       -0.413514 0.14530186 0.09090379 -3.7382943e-05
000140 27 b6 27 bd 02 76 87 bd c6 24 13 be 1e 92 06 be
       -0.0409452 -0.06614305 -0.14369497 -0.13141677
000150 68 c7 06 be a0 cf 0c be a3 4d c7 3d c6 51 24 be
       -0.13162005 -0.13751078 0.09731605 -0.16046819
000160 26 b5 5d 3e 12 e0 07 be 19 92 a0 be ca 12 9c 3d
       0.21651134 -0.1326907 -0.31361464 0.07620771
000170 48 68 ff bd dc 59 43 3d 72 66 47 be dc 11 79 bc
       -0.12471062 0.04769312 -0.19472674 -0.015202012
000180 c3 ed 4c be b9 0a 40 3d d4 92 05 3d 4e 2b 9a bd
       -0.20012574 0.046885226 0.03261073 -0.07527791
000190 b5 14 b4 3e 8f 35 99 be e0 32 9e 3d 19 22 6a 3b
       0.35172048 -0.29923674 0.077245474 0.003572589
0001a0 89 c9 5f bd 08 80 0c 3d 28 ba 4c 3d 38 44 31 3e
       -0.05463556 0.034301788 0.04998222 0.1731118
0001b0 68 f2 ae 3d f8 5e 13 3e 58 c8 ef bd f7 21 ee bb
       0.08542329 0.14391696 -0.117081344 -0.0072672325
0001c0 24 6b b5 bd af a8 50 be 54 8d ba 3c dc c0 29 3d
       -0.08858326 -0.20376848 0.022772469 0.04144369
0001d0 8d 56 9c bd 91 02 ea 3d 9e 81 5c 3c 54 7f fb 3b
       -0.07633696 0.11426271 0.0134586375 0.007675091
0001e0 e4 a0 14 be 13 09 2e be 76 1e d0 bd 6d 71 63 be
       -0.145145 -0.16995649 -0.1016206 -0.22211237
0001f0 0e 15 1a be fd d2 70 3d ab d6 b8 3c 62 7f 23 be
       -0.15047094 0.058794964 0.0225633 -0.15966561
000200 f7 3e b9 3d 10 e3 cc 3b 08 67 b9 bd 23 12 64 bc
       0.09045213 0.006252654 -0.09052855 -0.01392034
000210 68 ef 28 3e 45 28 05 3e 88 ee 72 bd db e7 84 bd
       0.16497576 0.13003643 -0.059309512 -0.064895354
000220 50 7e 3d 3e 52 00 17 3d b3 66 c0 3d 4b db 84 3d
       0.18505216 0.03686554 0.09394588 0.06487139
000230 b5 68 a7 3d 7c 57 56 be 85 9f 31 3d f1 06 fb bc
       0.08174268 -0.2093181 0.04336502 -0.030642958
000240 70 84 7c 3d 18 c2 d8 3c c2 f7 a7 3d 40 24 9a 3e
       0.06164974 0.026459739 0.08201553 0.30105782
000250 f4 ee 9c 3c 95 2d e1 bd 05 32 5b 38 fa ab a9 3d
       0.01915691 -0.10995022 5.2260253e-05 0.08284755
000260 f6 04 8b be 8f 3b 99 be 77 45 11 be d7 1e 12 3d
       -0.27152222 -0.29928252 -0.14186655 0.035673942
000270 7a 69 16 3d 51 11 ce 3d bb 36 35 3d 65 72 c3 3d
       0.036721684 0.100618966 0.04424165 0.095433034
000280 20 a2 dd 3b 60 a9 b9 3c 30 f3 8a 3d 56 d8 58 be
       0.0067637116 0.022663772 0.067846656 -0.21176276
000290 c8 5a 72 3e 0e 3f 00 be b3 c8 e7 3d 23 ac f6 bd
       0.23667443 -0.12524053 0.11317577 -0.12044551
0002a0 2c ff 31 be 86 02 1b bd eb b2 ef bc 92 d5 a3 3d
       -0.17382497 -0.037844203 -0.02926012 0.0799972
0002b0 48 e2 33 be 26 04 df bb 76 44 28 3b 2d 53 df bd
       -0.17566788 -0.0068059145 0.0025675572 -0.109045364
0002c0 48 9f 38 3d 5c 46 ce 3d 4e 9f 7a bd be ed 4b 3e
       0.045073777 0.10072014 -0.06118708 0.1991491
0002d0 c9 93 09 be ca c4 cb bd 3b f1 c2 bd e0 95 f8 3c
       -0.13435282 -0.09949644 -0.09518667 0.030344903
0002e0 98 64 54 be c6 65 f9 bc 04 6f 8e 3d fa cd 91 bd
       -0.20741498 -0.030444037 0.06954768 -0.07119365
0002f0 12 c2 15 3e 9a da 2c be 08 a3 97 3d 86 f0 88 3d
       0.14624813 -0.16880265 0.074041426 0.06686501
000300 39 97 1c 3e 73 54 13 be 00 ac e3 3d 47 ca 30 bd
       0.15292062 -0.14387684 0.11116791 -0.043161657
000310 65 15 1c 3d 92 36 20 be 9a 75 21 bc 89 ae 0e 3e
       0.03810634 -0.15645817 -0.009854699 0.13933767
000320 6f 42 70 3e 92 56 83 3c cf b4 9b 3d 7b 60 d0 bd
       0.23462842 0.01603249 0.07602846 -0.10174652
000330 a9 ad 88 3c 30 1f 3b 3e 6d 39 e3 3d d8 57 45 3c
       0.01668437 0.18273616 0.110949375 0.012044869
000340 1b b5 2f bd 42 8b ce 3d cb 05 e0 bc 0f 72 06 bd
       -0.042897325 0.10085155 -0.027346512 -0.03282362
000350 e7 e4 53 bd 7b ae d4 3b 08 9f 8d bd 4c 63 12 be
       -0.05173197 0.0064905263 -0.069150984 -0.14295691
000360 a0 5b fb bd d9 5e 68 bd 55 12 60 be 83 35 43 bd
       -0.122733355 -0.05673108 -0.21881993 -0.047658455
000370 7a 4a 9d 3d 5f 7e 8e bd e3 28 02 be 28 d4 19 3e
       0.07680221 -0.06957697 -0.1271091 0.15022337
000380 9b f6 a9 bc d9 4f cc bb bf c2 81 bd 29 5e 11 be
       -0.020747473 -0.0062351045 -0.06335973 -0.14196075
000390 fb 86 46 3c 77 96 3f bd ec 93 56 be 5a cb a6 3d
       0.012117143 -0.046774354 -0.20954865 0.08144255
0003a0 e0 b2 46 be 9b 33 48 be c0 fd 58 bd 38 2e 06 3e
       -0.19404173 -0.19550936 -0.05297637 0.13103569
0003b0 42 98 43 3d 90 87 4b bd 11 ed 64 bd 35 1b f0 3b
       0.047752626 -0.04968983 -0.055890147 0.007327462
0003c0 7d 1e 67 bc 01 6b 2c bd 74 72 19 be f7 99 a6 be
       -0.01410639 -0.042094234 -0.14985067 -0.3253934
0003d0 04 0d 7a bc e3 83 0d be c6 5b 42 be a8 07 33 3e
       -0.015261892 -0.13819842 -0.18980321 0.1748339
0003e0 3b 82 2c bd 4b 66 87 bd db 0b 2b be 4d 9b 42 3d
       -0.042116385 -0.06611308 -0.16703741 0.047511388
0003f0 63 d2 20 bd 60 a0 67 3c 8e 0a c9 bd 01 99 cc 3c
       -0.03926314 0.0141373575 -0.09816466 0.024975302

advantage.bias f4 [64]
000000 8f 44 af 3d 35 e7 a7 3d c2 17 0e be 36 72 22 3c
       0.085579984 0.08198396 -0.1387625 0.009914925
000010 12 21 0a 3d a6 9d a0 3d 8d 00 b3 3d 78 b4 10 3d
       0.033722945 0.07842569 0.087403394 0.03532836
000020 8b 28 72 3c c1 d5 94 bd 24 5b 45 3c a3 3c 88 bd
       0.014780174 -0.07267333 0.012045655 -0.066521905
000030 ed 7c ed bc a8 9c 00 3d 89 44 86 3d d1 89 6a 3d
       -0.028990233 0.0313994 0.06556041 0.05726034
000040 0f a8 bf 3c 78 49 f9 bc 31 0b 65 bc ab c5 53 bd
       0.023395566 -0.03043054 -0.013979719 -0.051702183
000050 d7 f3 a8 bc 4d f3 2f 3d 37 ae e1 3d ab 34 74 bd
       -0.020624084 0.04295664 0.11019557 -0.05962054
000060 67 6a d6 bd bf 27 d9 3c 10 c5 ea 3d 16 88 c2 3d
       -0.104695134 0.02650821 0.11463368 0.094986126
000070 6b af e9 3d 4b af e4 bd e0 39 c3 bd 86 e7 1b bd
       0.114104114 -0.11166247 -0.09532523 -0.038062595
000080 c6 a3 18 bd 7c 82 e7 3d 6f 5d 12 be c9 4e c7 bd
       -0.03726556 0.11304185 -0.14293455 -0.09731824
000090 46 4c 07 3c 81 0d 19 3e fe 43 26 3b 76 cc ae bd
       0.008257931 0.14946558 0.0025370116 -0.085350916
0000a0 5c d3 b0 3b 53 75 90 3d 3c 7d 0d bd 97 c5 bf 3c
       0.0053962898 0.07053628 -0.03454326 0.023409648
0000b0 34 8d 8a bd 7d 25 aa 3d 8a 4a 09 bd f7 f7 e6 bd
       -0.067652136 0.083079316 -0.03351835 -0.11277764
0000c0 a3 30 7a bd 5a b8 5c 3d 29 7f b7 3c e4 82 b5 3d
       -0.06108154 0.05388675 0.022399502 0.08862856
0000d0 a4 b0 6d bd 36 29 46 3d b6 13 f3 3d 07 33 65 bd
       -0.058029786 0.048379146 0.11868994 -0.055956867
0000e0 ce cf ea bd 3e be 3b ba bf 1b 29 3c 52 bc c4 bc
       -0.11465417 -0.0007161832 0.010321557 -0.02401558
0000f0 df c9 0b be 44 88 f1 3d e0 6a e7 3b 16 66 46 3d
       -0.13651226 0.11793569 0.007062301 0.0484372

advantage2.weight f4 [4, 64]
000000 1d 9f b8 bd 5f fe a9 3d 5f 1e 62 bd 14 20 88 3e
       -0.090147234 0.083004706 -0.055204745 0.26586974
000010 5b 67 a9 3d ae b7 c9 3d 45 c1 8e 3d ef 35 94 3d
       0.082716666 0.09849487 0.06970457 0.072368495
000020 70 27 2e 3e 04 f2 d6 be e1 7a 0f bd c6 7d 69 3e
       0.17007232 -0.41981518 -0.035029296 0.22801885
000030 d7 38 5a 3d 09 6a 7b 3e da ff 76 be 64 38 3c 3e
       0.053276863 0.24552168 -0.24121037 0.18380886
000040 88 65 ff 3b 49 87 cc bc b4 d7 12 be b9 28 64 be
       0.007794086 -0.024966853 -0.14340097 -0.2228116
000050 9f 55 0d bc 5f 72 23 3e c0 07 41 3e 0f aa fb be
       -0.008626371 0.15961598 0.18850613 -0.49153182
000060 2e 2c 53 bd 9f 32 43 bd 8e 93 10 bf 49 1f 1c be
       -0.051555805 -0.047655698 -0.5647515 -0.1524631
000070 46 b2 08 be fe d7 3c 3e 94 87 02 bd a9 25 15 bd
       -0.13349256 0.1844177 -0.03186758 -0.03641287
000080 45 14 08 3e 77 07 b6 bd 9a cf ad bd d6 aa 76 3c
       0.13288982 -0.088881426 -0.084868625 0.015055379
000090 f3 e8 88 be 1b 97 49 bd f6 a3 26 be 13 ec 25 3e
       -0.26740226 -0.04921637 -0.16273484 0.16203336
0000a0 1d a3 f1 3c fa 29 53 3e 58 c3 a0 bd d4 75 09 3d
       0.029496724 0.20621482 -0.07849759 0.033559635
0000b0 a1 14 6d 3e f5 1c 22 bd dc 40 94 3e c4 c1 23 be
       0.231524 -0.039578397 0.28955734 -0.15991884
0000c0 1a 07 1d 3e c4 63 94 3c f7 26 39 bc a4 a7 d0 bd
       0.1533474 0.018113978 -0.011300794 -0.10188225
0000d0 39 8d f1 3d 6b 4c 42 3e 4b e4 9a 3c 67 c6 7e 3d
       0.11794514 0.18974464 0.018907687 0.06220093
0000e0 d4 05 12 bd fc c4 f1 3d ee 28 39 bc 48 99 27 be
       -0.03565009 0.1180515 -0.011301262 -0.16367066
0000f0 5b e9 89 3e 14 95 39 3d 51 8c 0f 3e 24 da b2 bd
       0.2693585 0.045308188 0.1401837 -0.08733013
000100 4f e9 c1 3d c3 fa a4 3d bf ae 46 3d 45 e2 31 3e
       0.09468328 0.080556415 0.048506495 0.17371471
000110 91 74 9a 3e e6 00 39 3e 10 72 97 3d 44 5d 9a 3d
       0.30167058 0.18066749 0.073948026 0.0753732
000120 ef 13 c0 3d ce f0 72 3e f6 85 51 bd a4 50 2e 3d
       0.09378802 0.23724672 -0.051153146 0.042557374
000130 3c 6c e4 3d 66 b8 ad 3d 02 7c ac 3c bc f2 03 3d
       0.111534566 0.08482437 0.021055225 0.03221391
000140 b9 a8 1c be e8 ee 15 3e 76 91 5c bd b3 4e ae bc
       -0.15298738 0.14641917 -0.05384966 -0.021277761
000150 96 34 75 bc f8 49 30 bd 19 3a 5b 3d 91 2c 0b 3d
       -0.014966151 -0.043039292 0.053522203 0.03397805
000160 83 de 4f bd 23 8a 21 3e 6d eb 37 3d 34 f3 2d bd
       -0.050749313 0.15775351 0.044902254 -0.042468265
000170 cd 8b a2 bd 37 64 47 3c d6 62 a0 bd 7d bb 01 be
       -0.07936821 0.012169889 -0.078313515 -0.12669177
000180 ea 49 da 3d c0 42 9c bd 56 b6 f2 bc 28 04 14 3d
       0.10658629 -0.07629919 -0.02962796 0.036136776
000190 e8 35 bb 3d e3 61 ab bd 91 af 8a bd 16 a8 9c be
       0.09141141 -0.0836828 -0.06771768 -0.3059699
0001a0 6c 2d c3 bc 01 4b cc 3d cc 4f 1a be b3 ad fa 3d
       -0.02382537 0.09975243 -0.15069503 0.12240162
0001b0 4f ac b7 3e 7a dd 61 bd f7 97 91 3e a7 fd 88 bd
       0.3587365 -0.055142857 0.28436252 -0.06689005
0001c0 8a f4 6b ba e6 d8 15 bc cf e2 c9 bc 67 30 16 bd
       -0.0009000978 -0.009145951 -0.024644284 -0.036667254
0001d0 93 63 5f 3e 8f fd bf bc 85 ab ca 3b 1f d6 9f 3e
       0.21815328 -0.023436336 0.0061849975 0.3121805
0001e0 80 a6 e9 bc 23 91 c2 3e b4 7e 9d 3a b1 10 90 bd
       -0.028521776 0.38001356 0.001201591 -0.07034434
0001f0 d4 ad cf bd e5 7b 12 3c d4 5f 53 3d ae f8 8c 3e
       -0.10140577 0.008940672 0.05160506 0.27533478
000200 6d 5d e2 3e 18 71 f6 3c c1 19 09 bc 03 81 de bd
       0.44211903 0.030083224 -0.008367957 -0.10864451
000210 ca 43 e2 3e c8 eb 68 be 07 d6 c0 3d fe 8b 7a bc
       0.44192344 -0.22746193 0.094158225 -0.015292166
000220 1f f8 bb bd 41 eb c8 3d db c4 59 bd b2 ef 11 be
       -0.09178185 0.09810496 -0.05316625 -0.14251593
000230 72 5d 8c 3e 6b 74 7e be 30 f1 fd bc 1f cc 76 3e
       0.27415043 -0.24849097 -0.030998796 0.24101304
000240 73 83 95 3c c2 ac 53 be a1 91 e5 bc 36 ff 5b 3d
       0.018251156 -0.2067137 -0.028023543 0.053710185
000250 54 cf 1b bd 0c 62 84 be 57 7e 3e 3c 83 99 bc 3d
       -0.03803952 -0.25856054 0.011626801 0.092089675
000260 4c 6b 93 bd 7f 44 0b bf ba 17 37 be bb 3b aa bd
       -0.071982 -0.5440139 -0.17880145 -0.08312174
000270 ce 42 29 bd a3 07 4e be 99 7e 6d 3d d3 8d 17 3e
       -0.041323476 -0.201201 0.05798206 0.14800195
000280 d9 29 53 bd 22 f3 1d 3c 26 bc 09 be a5 8b 78 be
       -0.05155358 0.009640487 -0.13450679 -0.2427202
000290 a7 11 c3 3d 39 dd 17 be 0c 77 19 be ce 16 8a 3e
       0.09524851 -0.14830483 -0.14986819 0.26970524
0002a0 f7 44 2f 3e 51 80 04 3e 12 eb 5d bd 55 8f 1d 3e
       0.17116152 0.12939574 -0.05417926 0.15386708
0002b0 44 92 eb 3c a6 75 9a 3c 5c 1c f7 bd c8 7a 07 be
       0.028756268 0.018854927 -0.12065956 -0.13230431
0002c0 70 07 56 3e 73 a4 6a be 44 8e f8 bd 19 c0 6d 3b
       0.20901275 -0.22914295 -0.1213651 0.003627783
0002d0 78 51 08 be fd a5 97 bd 83 5f c9 bd e8 21 85 3d
       -0.13312328 -0.074047066 -0.098326705 0.06500608
0002e0 c7 85 53 3d e0 ea 42 bc 8a ad 13 3d 39 dc d4 bd
       0.051641252 -0.011896819 0.03605417 -0.10393567
0002f0 d3 fe 14 3e 41 ed f5 3d c5 89 1a 3e 6a d2 94 be
       0.14550333 0.12008143 0.15091617 -0.29066783
000300 4d ac 39 be 58 c4 b5 3e 46 91 6c bd 33 17 95 be
       -0.18132134 0.3550136 -0.05775573 -0.29119262
000310 69 f2 f1 bc 63 ec a4 be db 6b eb 3e 4f 23 da 3c
       -0.029534535 -0.322116 0.45980725 0.026628165
000320 10 4a 23 3e 73 fc 1f 3d c6 e4 d6 bd a7 d6 ab bd
       0.15946221 0.039059114 -0.10492854 -0.08390551
000330 07 45 20 be 86 ca 73 bd fe 49 3c be f3 80 57 bc
       -0.15651332 -0.059519313 -0.18387601 -0.0131533025
000340 de b5 c5 bb 73 07 d1 bd 57 66 c0 bd 26 3b b4 be
       -0.006033643 -0.10206499 -0.0939452 -0.35201377
000350 f2 f7 49 bd 49 4c 6a 3c 21 a3 5f 3e ea 1f 78 be
       -0.049308725 0.014300414 0.21839572 -0.24230924
000360 c1 23 f4 bd 10 05 52 3e 38 c1 74 3e 64 b7 dd bd
       -0.11920882 0.20509744 0.23901832 -0.108259946
000370 fb dc 60 bd d2 05 00 be 6f 5c 94 bd b9 cd 11 3c
       -0.054898243 -0.1250222 -0.07244193 0.008899146
000380 80 80 2a be 68 30 77 bd fb 90 51 3d e1 21 b8 3d
       -0.16650581 -0.0603489 0.051163655 0.08990837
000390 da ea 7d 3d 93 b7 b8 3d f4 bc a0 3d 4c fe 54 bd
       0.06199155 0.09019389 0.0784854 -0.05200033
0003a0 aa 89 e9 3d c7 68 ff 39 b8 62 37 3c 7a b9 f8 bd
       0.114032105 0.00048715455 0.01119297 -0.12144752
0003b0 ae 92 20 3c 4f 84 28 3d ce 7e 9a 3e 78 53 7d bd
       0.009800596 0.041141804 0.3017487 -0.06184718
0003c0 a2 96 3c 3e 9e 95 23 3e 0d dd 03 3d fd 6c c0 bd
       0.18416837 0.15975043 0.032193232 -0.09395788
0003d0 0c f5 5b be 38 90 26 3e ca a4 07 3e 8d 45 d8 be
       -0.21480197 0.16265953 0.13246456 -0.42240563
0003e0 09 9d 08 be 6d 67 b9 3e ab 4a db 3d 49 07 05 be
       -0.13341154 0.3621172 0.10707601 -0.1299106
0003f0 94 31 0a be 92 e3 32 3e 90 e5 94 3c 97 5e 6d be
       -0.13495475 0.17469624 0.01817587 -0.23180614

advantage2.bias f4 [4]
000000 a8 26 a5 3d ad 2c 63 bc 83 11 82 3a 78 1e ce bc
       0.08064014 -0.013865632 0.0009923432 -0.025161013

value.weight f4 [64, 64]
000000 00 9d a4 bc e0 ab d5 3d e2 de 81 be d9 78 a7 3e
       -0.020094395 0.10433173 -0.2536536 0.32709387
000010 55 3b 01 be a9 2d d2 3d 83 80 fa 3c 5f 91 2d bd
       -0.1262029 0.10262615 0.030578857 -0.042374965
000020 f7 8b 28 be d7 7e 80 3d a7 08 3a be 78 85 61 bd
       -0.16459642 0.06274193 -0.18167363 -0.055058926
000030 fe 33 2b 3e 18 16 d4 bd 97 c5 aa 3c 60 ff 6e bd
       0.16719052 -0.103557765 0.020846171 -0.058349013
000040 f1 57 fd bd 3e 13 6e be f5 36 4e bd a6 52 67 be
       -0.12370289 -0.23249528 -0.05034538 -0.22590122
000050 da 15 ae bd 4f 37 14 3b 04 03 95 3b 97 62 a9 bd
       -0.085002616 0.0022615974 0.0045474786 -0.08270758
000060 8d b1 68 3c d8 22 e9 bd 42 3b 0f 3e 06 a0 de bc
       0.014202488 -0.11383599 0.13987449 -0.027175914
000070 59 2e b8 bd b5 5f 07 be 18 a0 e6 be 45 8a d8 3d
       -0.08993215 -0.13220103 -0.45044017 0.10573248
000080 d0 6a 87 bd 2f 65 34 3b 27 ef 3c be 18 07 34 be
       -0.0661217 0.002752613 -0.18450604 -0.17580831
000090 32 ea cd bd 95 c6 29 3e 92 2e 5d bd b4 eb fd 3a
       -0.10054435 0.1657966 -0.05399949 0.0019372613
0000a0 3c db f1 3b b2 57 27 bd 53 6f cc 3c 98 43 c6 3d
       0.007380871 -0.040855117 0.024955427 0.09680861
0000b0 c6 cb 57 be 8d 20 b1 bd d8 18 5f 3d 6e f7 2e be
       -0.21073827 -0.08648787 0.054467052 -0.17086574
0000c0 83 8d b2 3c ac 1f a3 3d 00 31 bc be d6 76 d2 3c
       0.021795994 0.07965025 -0.36756134 0.025691431
0000d0 55 43 87 bd f8 b0 e7 38 ec a7 19 3d fc e1 8e 3d
       -0.066046394 0.00011047901 0.03751366 0.06976697
0000e0 f4 86 04 3d e8 12 92 3d 2d 8e 92 bd 19 ed 6d be
       0.032355264 0.07132512 -0.07156024 -0.23234977
0000f0 d3 7f 4a bd 57 0c ef 3d 59 99 6a bd 33 50 8d be
       -0.04943831 0.116722755 -0.05727515 -0.2760025
000100 9d 1d a7 bd 6f 53 d1 bc 68 08 9c 3c 75 74 10 be
       -0.08159945 -0.02555248 0.019046977 -0.14106925
000110 58 af 25 3c ed 70 e6 bd 7e e4 e7 bc 1e f4 36 bd
       0.010112606 -0.11252008 -0.028307196 -0.044666402
000120 1c 99 c9 3d f9 ca d2 3d 8a 7f 63 bd 45 68 50 3d
       0.098436564 0.1029262 -0.055541553 0.05088069
000130 3c 92 54 3e 3b 83 b5 3d 3a 1a 02 3e 02 87 ea bd
       0.20758909 0.08862921 0.12705317 -0.11451532
000140 33 b4 f7 bc a8 17 b4 3e 22 12 ed 3d 95 34 34 be
       -0.030237293 0.35174298 0.11575724 -0.17598183
000150 46 e8 35 bd 26 7c 2e 3d 6b dd 07 3e 3d d2 ca bc
       -0.044410966 0.042598866 0.13268058 -0.024758453
000160 54 14 89 bd e5 42 b0 3c 49 05 8b bd 22 9e e3 3d
       -0.066933304 0.021516273 -0.067881174 0.11114146
000170 c1 97 f4 3d 92 31 1f be e6 a4 9c bc 72 42 30 be
       0.11943007 -0.15546253 -0.019121598 -0.17212847
000180 96 75 91 bd 5f e8 cd bc f2 0a 14 3e 09 e8 6a 3c
       -0.07102506 -0.025135217 0.144573 0.014337548
000190 65 7f 45 be e4 c3 fd bc 4b a9 42 bc 44 cd 96 bd
       -0.19286878 -0.030977197 -0.011881183 -0.0736337
0001a0 43 ed 1e be c1 be 24 3d d4 15 0f 3d 19 e6 27 3e
       -0.15520196 0.04022098 0.034932926 0.16396369
0001b0 17 b5 42 3d 58 8a a1 3d 06 cd 46 bd f0 2f 36 3e
       0.047535982 0.07887715 -0.04853537 0.17791724
0001c0 b4 eb 04 be 36 c0 26 be a4 4d a4 bd d3 18 4b be
       -0.12980539 -0.1628426 -0.08022621 -0.19833688
0001d0 31 cf e8 bd 6b 15 0c 3c 6d 97 2b bc 17 67 3e 3d
       -0.113676436 0.008550028 -0.010473114 0.046485033
0001e0 ec 02 64 3c 2e 6c 01 3d 85 0a be bb 9c 86 d7 3d
       0.013916712 0.03159731 -0.005799594 0.105237216
0001f0 e4 95 c5 bd c3 5b 17 be 3f a1 0f 3e 7e ff 8a bd
       -0.0964773 -0.14781098 0.14026354 -0.067870125
000200 71 30 d2 3b f0 b2 73 bd 3f 82 99 bd ae 41 20 bd
       0.006414466 -0.05949682 -0.074955456 -0.039125137
000210 e4 c7 6a 3c a3 3c 4f 3d f6 1c 52 3b 03 37 87 3c
       0.014329884 0.050594937 0.003206072 0.016505724
000220 80 cb 55 3d 7b 85 15 bd ef a2 93 bd c5 dc 35 3e
       0.052196026 -0.03650425 -0.072088115 0.17759998
000230 06 40 5d bd 81 30 10 3e 44 b5 8b 3d f2 4a e4 bd
       -0.054016136 0.14081003 0.06821683 -0.11147107
000240 66 8f 24 be d0 21 89 3d 3e 96 a7 bd cb 7e da 3d
       -0.16070327 0.06695902 -0.08182953 0.10668715
000250 35 8b 3f bb 9a 95 b0 3d 7b 86 88 3c ec 2d 9a 3c
       -0.002922726 0.08622284 0.016665688 0.018820725
000260 86 85 3e bb f5 ad 8c bc 7e 1b ff bd 0f 81 8f be
       -0.0029071285 -0.017172793 -0.124564156 -0.2802815
000270 08 8e 52 3d e0 7d 90 bd 0b ac 7f 3d fb 37 0f 3d
       0.051404983 -0.07055259 0.062419932 0.034965497
000280 f7 b9 2a 3e e6 9e 66 bd 36 3a be 3d d3 1d a7 bc
       0.16672502 -0.05630388 0.092884466 -0.020399963
000290 2d 7d 84 3e 85 28 0f bd 22 bf bd bd 0b 0d d7 3c
       0.25876752 -0.03495075 -0.09264971 0.026251337
0002a0 30 7d 0c be dc 7f 0c 3e f7 58 22 bd c6 a8 dd 3d
       -0.1371963 0.1372065 -0.039635625 0.108232066
0002b0 5e 70 b3 3d c2 2d 70 bd 05 54 c9 3d 63 06 20 bd
       0.08761667 -0.058637388 0.098304786 -0.03906859
0002c0 3c be dc 3d 00 41 f7 3b b8 17 0d bd fe 31 91 3d
       0.10778472 0.0075455904 -0.034446448 0.070896134
0002d0 40 90 ce bd c6 a6 08 bd 81 1a 87 bd 0f f7 dd bd
       -0.10086107 -0.033362173 -0.06596852 -0.10838138
0002e0 f6 0c 05 3e 72 63 10 3d c6 30 b2 bd f0 45 c1 bb
       0.12993225 0.03525109 -0.08700709 -0.00589823
0002f0 08 1e b2 bd 5d 2c 3f 3e 0e 24 ce 3c 4a 36 58 bc
       -0.08697134 0.18669267 0.025163677 -0.013196537
000300 f2 1e 01 bb ef bf b2 be 73 02 51 3d d4 9f 50 bd
       -0.0019702283 -0.3491206 0.051027726 -0.050933674
000310 13 32 c8 bd ec 44 2b 3e e5 9b 8a be cd 16 24 3b
       -0.09775176 0.1672551 -0.27072063 0.0025038004
000320 f3 17 9d be 6d a2 58 be 96 e9 42 be a4 1d 41 bd
       -0.30682334 -0.2115571 -0.19034418 -0.047147408
000330 35 2a cb 3d 52 4c 5e 3d 8a 66 a7 bd 7c a2 8d 3d
       0.0992016 0.054272003 -0.08173855 0.06915757
000340 ef 3a 7c bd 22 bf ef 3c 67 c8 c9 bd 49 04 b1 be
       -0.06157964 0.029265944 -0.09852677 -0.34573582
000350 40 b0 74 be 71 dd 86 3c 59 f7 4d bd 4a a1 cf 3d
       -0.23895359 0.016463013 -0.050284717 0.10138185
000360 e2 f5 d9 bd 9b 3a 26 bd 69 87 0f be 6d 5e 2c be
       -0.106426015 -0.040583234 -0.14016499 -0.16832896
000370 13 d4 17 be 12 44 a0 3c cd 0d 6b be 1a ff 31 bd
       -0.14826994 0.019563708 -0.22954483 -0.043456174
000380 23 70 d9 bb d9 87 37 3e 48 6b 20 be a4 9d 9e 3c
       -0.006635682 0.17922916 -0.15665925 0.019362278
000390 82 95 05 bd 4b f1 af bd 38 93 6c be c3 ef a8 bc
       -0.032613285 -0.08590945 -0.23103034 -0.02062214
0003a0 27 91 12 be e6 7a c9 bc 52 26 be be 0a 9b 8b 3e
       -0.14313184 -0.024594735 -0.3713861 0.27266723
0003b0 eb 1a 0e 3e e8 94 e6 3c c1 76 91 3e 76 dd f4 bd
       0.13877456 0.028147176 0.28410915 -0.11956303
0003c0 f1 18 ef be 85 ed 3f 3e dc fb 0d bf e4 0f 20 3e
       -0.46698716 0.1874295 -0.5546243 0.15631062
0003d0 5d e4 10 be eb 90 ef bc e7 8b f6 bd c5 f3 a6 bd
       -0.14149614 -0.029243907 -0.12038403 -0.08151964
0003e0 80 6f 9b be 9c 29 ed 3d d7 7a 78 be 98 62 19 be
       -0.30358505 0.11580202 -0.2426561 -0.14979017
0003f0 98 c2 c5 bd 54 bc 98 bd 9b dd b7 bc cb 88 ae be
       -0.096562564 -0.07457796 -0.022444537 -0.3408874

value.bias f4 [64]
000000 5f d6 30 bd 75 d0 1a 3e f3 c1 a3 bc 5b 52 84 3d
       -0.04317319 0.15118583 -0.019989943 0.064610206
000010 d2 38 e1 bd f7 ee 2f 3e b5 39 3f 3e 43 c4 87 bd
       -0.10997166 0.17181002 0.18674357 -0.06629231
000020 a2 94 96 3d 58 01 4e 3e a0 76 f2 3c 33 e8 0d be
       0.07352568 0.201177 0.02959758 -0.13858108
000030 4d 7a ff 3c fa fb 7b 3d 42 9e 6d 3e 92 44 b2 3b
       0.031186247 0.0615196 0.23204902 0.005440303
000040 d3 07 22 3e 71 b5 07 bd 5f 41 e5 bd 13 26 b6 bc
       0.15823297 -0.03313202 -0.11194109 -0.022234952
000050 eb 81 71 3e 78 f0 88 3d 49 69 59 bd bd 2e 70 bd
       0.23584716 0.06686491 -0.053078923 -0.058638323
000060 bb 78 cc 3d 3c 8c be 3d c0 a9 45 3d 9d 78 41 3e
       0.09983965 0.09304091 0.04825759 0.18893667
000070 a2 e3 25 bc 32 d9 a5 3c 00 ac 1d be 58 ea 12 3e
       -0.010125073 0.020245168 -0.15397644 0.14347208
000080 1a 96 13 3e d1 95 14 3d 4e 83 ad 3d dd 0c 9f bd
       0.14412728 0.03627569 0.0847231 -0.07766125
000090 d6 36 8c 3d 44 05 0f bd 2f 00 36 3e 56 b8 a9 bd
       0.068463966 -0.03491713 0.17773508 -0.082871124
0000a0 47 aa 21 3c bb dc 89 3e b2 ea 9a bc cf 42 5b 3e
       0.009867257 0.26926216 -0.01891074 0.21412204
0000b0 62 6d c0 bc cc fa 3d 3e 28 54 b7 3d fc f6 68 3d
       -0.023489658 0.18552703 0.089515984 0.056876168
0000c0 ed f1 cd 3d 39 ea bb bd e5 71 d3 3c e1 e4 29 3e
       0.10055909 -0.09175534 0.025811145 0.16591217
0000d0 07 ef e3 bc 4c b2 98 bc f7 a2 99 bd cd 17 8e 3e
       -0.027823938 -0.018639706 -0.07501786 0.27752534
0000e0 22 1f 8f bc 00 eb 2b be 53 86 a2 bc f2 e2 3f 3e
       -0.0174709 -0.16788864 -0.019839441 0.18738917
0000f0 29 9b a2 bb e0 05 47 bc a3 4e 9d bd 2c 69 17 be
       -0.004962344 -0.012147397 -0.076810144 -0.14786214

value2.weight f4 [1, 64]
000000 bd 04 51 be 37 d0 de 3d 1c 29 24 bd 5f ed bd be
       -0.20411964 0.108795576 -0.040078267 -0.37095162
000010 29 aa 9d be 16 31 81 3e 73 16 80 3d b9 33 a9 be
       -0.30793884 0.25232762 0.06254282 -0.33047274
000020 87 44 8a 3e 21 28 cb 3d ca 87 d9 bd f8 ac 98 bd
       0.27005407 0.09919763 -0.10621603 -0.07454866
000030 80 10 df bd 15 49 42 3e 4c 76 fa 3d 75 0c e6 bd
       -0.10891819 0.18973191 0.122295946 -0.11232845
000040 4c 96 dd 3c ae 1b 98 3d 52 8b 05 be b2 7d cd be
       0.027049206 0.074271545 -0.13041428 -0.4013496
000050 03 83 ae 3d 98 c1 34 be 31 64 37 3e 8b e4 f7 bd
       0.08521082 -0.17651975 0.17909314 -0.12104138
000060 6e 1d 9d 3d ee 6f c8 3d 76 80 db 3d 59 dd 42 3d
       0.07671629 0.09786974 0.10717861 0.047574375
000070 6a 70 36 be 1b 00 bc 3d 9c 02 b4 3c 48 ec 85 3e
       -0.1781632 0.091797076 0.0219739 0.2615683
000080 1f ec 29 3e 64 f6 e2 bd bb 13 d6 3d 6b 26 c1 be
       0.1659398 -0.110821515 0.10452982 -0.37724623
000090 77 dc 01 be 45 dc fb bd 01 63 82 3d 52 57 a0 bd
       -0.12681757 -0.122978725 0.0636654 -0.07829155
0000a0 2d 9e c6 3d b1 32 e1 3d ff 69 47 be 47 78 89 3d
       0.096981384 0.10995997 -0.19474028 0.06712394
0000b0 c1 8d b1 3d c7 13 60 3e 1e ec cd 3e b4 80 81 3d
       0.086696155 0.21882544 0.40219206 0.06323376
0000c0 01 36 42 3d 8f 71 f1 bd 61 5e 9b 3d bb 3f b0 3e
       0.047414783 -0.11789238 0.07586361 0.34423622
0000d0 5a 64 11 bd 21 db 6c 3e d6 25 29 3e 6e 9c 24 3e
       -0.035496093 0.23130466 0.1651834 0.16075298
0000e0 ab 88 34 be bd 81 39 bd df 86 9c be 9b 10 db 3d
       -0.1763026 -0.045289744 -0.30571648 0.106965266
0000f0 a4 95 06 3e f9 61 1d 3e 0a 07 c2 bd d3 e2 58 bd
       0.13143021 0.15369405 -0.09473999 -0.05295069
