checkpoints/rainbow_dqn_v1_checkpoint.pth (torch_old, 45853 bytes, 9 tensors)

fc1.weight f4 [64, 37]
0.011600094 -0.117653474 -0.14652708 0.10723676 -0.24213247 0.13701248 -0.12637599 -0.07898887
-0.3803422 -0.0006085557 -0.009649451 -0.0454357 -0.14049701 -0.1818459 -0.11764103 -0.09162871
0.0107993465 -0.07583322 0.082572676 -0.0139442235 0.023212953 0.014030039 0.084674045 0.14224286
-0.018265564 -0.02139143 -0.014764142 0.16451745 -0.035124063 0.07920878 -0.010582551 0.19060488
0.074460946 0.109887406 0.048001282 0.06498116 -0.14731891 -0.22247636 0.033239607 0.0768279
-0.07553556 -0.10600674 -0.04710206 0.11428935 0.09624949 -0.034731433 0.13557996 0.09014689
0.121054456 -0.03447621 0.15026022 0.25694743 -0.024117194 0.08197675 -0.008615604 -0.03568869
-0.12322182 0.17155465 -0.072064154 -0.20301771 0.17409441 0.2314692 -0.31820875 -0.050565183
0.07765436 -0.15695548 0.09824742 -0.055468064 -0.18472548 0.108408436 0.049868673 0.26187015
-0.091696054 -0.055456128 0.18015096 -0.123106204 -0.002553773 -0.1646963 -0.13749766 -0.07521739
0.13447514 0.12708122 0.23794007 0.5473772 -0.031594034 -0.21876961 -0.046784893 0.08695819
-0.022348594 0.06985308 -0.039272107 0.047993135 -0.012607487 0.0135351615 -0.08367349 0.10181381
0.13587311 -0.024665637 0.22519347 -0.04333326 0.16294637 -0.14655387 -0.09109223 -0.097832866
-0.13590394 -0.08146227 0.06801687 0.15817697 0.30260798 -0.17732535 0.049095545 0.1127324
0.08300394 -0.095625035 0.02633791 -0.09181977 -0.22089912 0.0152281085 0.1679869 0.3869096
0.09543694 0.0011535088 0.16224119 0.09526194 0.20047225 -0.004303585 0.16886246 0.1016877
0.101880774 0.023493653 -0.17635748 -0.24807201 0.099708006 0.08411725 -0.088804245 -0.18943287
0.20720981 -0.05281324 -0.007984921 -0.029866869 -0.40357026 -0.004767324 0.06950368 0.13340889
0.10912055 -0.23199876 -0.07909306 0.017147355 -0.35924718 -0.060251366 -0.14909224 0.04002733
0.013151324 0.01463302 0.028289113 0.111244306 -0.23823816 -0.09138819 -0.12404891 0.008449592
0.17162348 -0.17612773 -0.04648182 0.060054887 0.23022746 0.046833407 0.036025584 -0.02139883
-0.0048955726 0.22129422 -0.068333164 -0.10593338 -0.00767497 0.08059467 -0.37602586 0.03918774
-0.34840274 -0.14915238 0.23338254 0.01673037 -0.11746253 -0.17523283 -0.28954217 0.03939445
-0.06597471 -0.09636133 -0.08970226 -0.030505799 0.092393465 -0.23989242 -0.31855357 -0.080083326
-0.06542307 0.27522433 -0.14458898 0.034501202 -0.19926414 -0.25699702 0.21811005 0.06927381
-0.05335205 -0.07565667 -0.13261123 0.009047223 -0.13585852 -0.12963061 -0.11016153 0.08152889
-0.09808384 -0.19810317 0.065884136 0.07895436 -0.19002633 -0.32966533 0.02762533 0.09239382
-0.16491912 -0.30352455 -0.0535281 -0.17303175 -0.098087735 -0.13802959 0.13312607 -0.040495418
0.04832263 -0.22665791 -0.30901015 -0.16531387 -0.006016513 0.07025715 0.2045069 0.74370235
-0.14665687 -0.0660893 0.0061754044 0.027963381 0.13143903 0.07427062 -0.12145712 -0.06899826
0.02380614 -0.15836051 -0.17409982 0.092724904 0.014982758 0.087349154 0.01541643 -0.08278667
0.08007774 0.08774974 -0.030036777 -0.10971868 0.22557844 -0.25578377 -0.14303632 -0.12588759
00000000: 520e 3e3c 4ef4 f0bd 320b 16be f29e db3d
00000010: 93f1 77be 004d 0c3e b568 01be ebc4 a1bd
00000020: 36bc c2be 7b87 1fba bb18 1ebc c91a 3abd
00000030: 73de 0fbe d035 3abe c8ed f0bd d5a7 bbbd
00000040: beef 303c 724e 9bbd dd1b a93d 5076 64bc
00000050: 1729 be3c 40de 653c 9669 ad3d 1da8 113e
00000060: aaa1 95bc 153d afbc 4de5 71bc 4377 283e
00000070: 40de 0fbd 3638 a23d 7062 2dbc ed2d 433e
00000080: fb7e 983d a60c e13d fe9c 443d d814 853d
00000090: c5da 16be d8d0 63be 4126 083d f257 9d3d
000000a0: 63b2 9abd 101a d9bd 17ee 40bd 8910 ea3d
000000b0: 741e c53d 8c42 0ebd 79d5 0a3e ef9e b83d
000000c0: 66eb f73d ed36 0dbd d1dd 193e 9d8e 833e
000000d0: 6c91 c5bc 6de3 a73d 7628 0dbc 4e2e 12bd
000000e0: b95b fcbd 06ac 2f3e 5f96 93bd e0e3 4fbe
000000f0: ce45 323e 4306 6d3e 42ec a2be 701d 4fbd
00000100: 4009 9f3d f0b8 20be f135 c93d 7b32 63bd
00000110: ad28 3dbe 3e05 de3d 1843 4c3d d813 863e
00000120: 24cb bbbd f725 63bd 7e79 383e 1b1f fcbd
00000130: 345d 27bb 26a6 28be 30cc 0cbe 930b 9abd
00000140: dab3 093e 9421 023e 90a6 733e ea20 0c3f
00000150: bf68 01bd 2405 60be 84a1 3fbd 2317 b23d
00000160: 6614 b7bc 220f 8f3d cadb 20bd 7394 443d
00000170: a28f 4ebc 95c2 5d3c 025d abbd c283 d03d
00000180: 5222 0b3e 970f cabc 1e99 663e 377e 31bd
00000190: 6adb 263e 3812 16be 908e babd 995c c8bd
000001a0: 672a 0bbe b1d5 a6bd 6e4c 8b3d 25f9 213e
000001b0: 6fef 9a3e c794 35be 6918 493d 3fe0 e63d
000001c0: f8fd a93d 0fd7 c3bd 9ac2 d73c 010c bcbd
000001d0: 6133 62be 517f 793c c204 2c3e 0419 c63e
000001e0: 7174 c33d 5531 973a 8e22 263e b118 c33d
000001f0: 9948 4d3e 1605 8dbb 48ea 2c3e a441 d03d
00000200: dea6 d03d c375 c03c 0e97 34be 9706 7ebe
00000210: b633 cc3d aa45 ac3d 00df b5bd b1fa 41be
00000220: cf2e 543e b252 58bd 30d3 02bc 5dab f4bc
00000230: c3a0 cebe 3637 9cbb f257 8e3d 579c 083e
00000240: 987a df3d 1591 6dbe 8bfb a1bd 9c78 8c3c
00000250: 3fef b7be 23ca 76bd a3ab 18be b3f3 233d
00000260: a778 573c 56bf 6f3c 92be e73c 0ed4 e33d
00000270: b4f4 73be bb29 bbbd 5b0d febd 2870 0a3c
00000280: 11be 2f3e d45a 34be b963 3ebd 1dfc 753d
00000290: bfc0 6b3e 63d4 3f3d 908f 133d 994c afbc
000002a0: 0a6b a0bb f49a 623e 42f2 8bbd 9af3 d8bd
000002b0: 517e fbbb d10e a53d 7686 c0be 5383 203d
000002c0: d861 b2be 67bb 18be d5fb 6e3e 210e 893c
000002d0: 3290 f0bd 3c70 33be df3e 94be 135c 213d
000002e0: c01d 87bd 1759 c5bd d2b5 b7bd 4ce7 f9bc
000002f0: c938 bd3d 5ca6 75be 7419 a3be ba02 a4bd
00000300: 88fc 85bd 34ea 8c3e 220f 14be 2251 0d3d
00000310: e60b 4cbe 1d95 83be 3e58 5f3e 6ddf 8d3d
00000320: ae87 5abd e2f1 9abd 3dcb 07be ce3a 143c
00000330: 7f1e 0bbe e3bd 04be 5e9c e1bd 9ef8 a63d
00000340: 2ee0 c8bd 8fdb 4abe 43ee 863d d3b2 a13d
00000350: 4396 42be e5c9 a8be 844e e23c f938 bd3d
00000360: 8fe0 28be 9267 9bbe 4840 5bbd 3c2f 31be
00000370: 39e2 c8bd a157 0dbe 3352 083e 86de 25bd
00000380: f3ed 453d 0319 68be 9436 9ebe 0a48 29be
00000390: 2b26 c5bb fbe2 8f3d 426a 513e 4763 3e3f
000003a0: 382d 16be d459 87bd 0c5b ca3b 7613 e53c
000003b0: f497 063e 321b 983d 83be f8bd f64e 8dbd
000003c0: 1805 c33c 4229 22be 3947 32be 8ee6 bd3d
000003d0: 3e7a 753c 1de4 b23d 3295 7c3c 0f8c a9bd
000003e0: ccff a33d 23b6 b33d b00f f6bc 30b4 e0bd
000003f0: 09fe 663e 17f6 82be 1d78 12be ade8 00be

fc1.bias f4 [64]
0.11280029 -0.13881002 -0.1706778 -0.08299272 -0.0023142265 -0.13012925 0.061041404 -0.03038365
-0.02492777 -0.19208494 0.07814714 -0.02678106 0.20203233 -0.12831007 -0.062273633 0.13713059
0.03230892 -0.08794844 -0.059794616 -0.12120392 0.10827851 0.10975301 0.065387495 0.07350569
-0.095229186 0.020663738 -0.118803106 -0.18272504 0.067789175 0.14229499 -0.010610398 0.138769
0.07995872 -0.06153653 -0.10878918 -0.16271299 -0.0599986 -0.18066795 -0.00027251398 0.0481788
0.1508406 0.028286194 0.049414467 0.1489147 0.19551812 0.06553386 0.13320303 0.045405865
0.002943113 -0.07079238 -0.18008262 -0.08805344 0.20183627 0.016447587 -0.04025468 -0.09973773
0.13340856 -0.0050969976 -0.10928071 0.12570475 0.03698678 -0.0746644 0.016620552 -0.048702367
00000000: d703 e73d 3724 0ebe 29c6 2ebe 16f8 a9bd
00000010: 47aa 17bb 9a40 05be 8d06 7a3d 22e7 f8bc
00000020: 5335 ccbc eab1 44be 9c0b a03d f463 dbbc
00000030: 90e1 4e3e b763 03be a312 7fbd f66b 0c3e
00000040: 5c56 043d 501e b4bd 33eb 74bd c339 f8bd
00000050: 20c1 dd3d 30c6 e03d e1e9 853d 278a 963d
00000060: 8507 c3bd 0047 a93c 0b4f f3bd 461c 3bbe
00000070: 0dd5 8a3d c7b5 113e 3cd7 2dbc 7619 0e3e
00000080: 66c1 a33d ba0d 7cbd ddcc debd 3c9e 26be
00000090: 18c1 75bd 0501 39be 35e0 8eb9 2257 453d
000000a0: f575 1a3e 73b8 e73c d366 4a3d 187d 183e
000000b0: e735 483e 9e36 863d 6066 083e 80fb 393d
000000c0: 3ee1 403b 98fb 90bd 9467 38be 5d55 b4bd
000000d0: 2bae 4e3e 17bd 863c 17e2 24bd 4c43 ccbd
000000e0: 419c 083e b704 a7bb 91ce dfbd bfb8 003e
000000f0: 737f 173d a6e9 98bd d327 883c 227c 47bd

advantage.weight f4 [64, 64]
0.008563476 -0.03303901 -0.059333213 0.034895174 -0.074259326 0.14387977 -0.09136264 0.00016635776
-0.1794183 -0.071565494 -0.1948593 0.27169016 0.12522766 -0.046208587 -0.18715167 -0.06696089
0.19637978 0.119482286 -0.08431424 -0.04060788 0.14418761 0.1040952 -0.057495024 0.17711776
0.0020837535 -0.051936254 -0.06631815 -0.08041782 -0.15868673 -0.1146867 -0.13183872 0.01785242
-0.0042814803 0.14371195 0.15974519 0.005482499 -0.04113358 0.02684454 0.027974535 -0.08474909
-0.040574457 0.120240286 -0.30265534 -0.018189354 -0.0072873267 0.20605078 -0.13370647 -0.4514971
-0.1824826 -0.15701745 -0.24589643 -0.031795014 -0.011419732 -0.00862873 -0.09498896 -0.23496234
-0.18541473 0.058787026 0.13669056 0.12223731 -0.104216486 -0.25896186 -0.006115472 -0.10250271
-0.12391784 -0.18012987 0.16411494 -0.02851381 0.030910134 0.20703547 -0.08630918 -0.34017858
0.027060732 0.10147346 0.022002768 0.10903146 -0.19915366 -0.011798558 -0.09189861 0.0040696864
0.03829965 0.0035662872 -0.088157244 0.040668234 -0.23761827 0.08055715 -0.2699275 0.07826576
0.0457466 0.059834607 -0.18120964 0.12199643 0.05674075 0.011166583 -0.07813249 0.10542187
-0.031329382 -0.018007893 0.110381514 -0.007877517 0.06134377 -0.11372866 0.05778385 -0.05018623
-0.076036744 0.10135368 -0.013637726 -0.092890486 -0.026360588 0.080854885 -0.1287576 -0.015440141
-0.05097408 -0.16358244 0.085619554 0.10032877 -0.21080413 0.120972715 0.07527038 0.023116391
0.07757363 -0.0027057386 -0.069023244 -0.051963106 -0.1850843 0.00081153825 0.0657728 -0.10593735
0.03378641 -0.064612485 -0.08375279 0.0076669725 0.06420155 0.083205126 -0.222136 -0.1689416
-0.05357638 -0.12660553 -0.1926847 -0.11347569 -0.061021127 -0.07113636 0.078516796 0.0076448326
0.09956597 0.20209524 0.07466558 -0.04899341 -0.121223524 -0.1352127 -0.013017845 0.10604551
-0.20687072 -0.04441306 0.07914035 0.064602666 0.030460022 0.06302043 -0.21775056 0.011689342
-0.22903739 -0.21253997 0.07184736 -0.18875559 -0.10826243 -0.09162449 0.056010306 -0.17580561
-0.22727929 0.12798278 0.03599094 0.017725457 -0.21731856 0.25325933 -0.21717973 0.1162388
0.113697514 0.09407881 -0.077497244 -0.015192254 -0.021246921 -0.04045733 -0.26587564 0.08945857
-0.27547565 0.0044592014 -0.2700038 -0.067114174 0.16403587 -0.024032157 0.114784494 0.022758603
0.022886762 -0.06648291 -0.109509155 0.057334732 -0.14947899 -0.1340037 -0.05753163 0.119813755
0.064064756 -0.17956226 -0.053319674 -0.07390828 0.14789942 0.10516922 -0.1481461 -0.039653305
0.10314909 0.3212759 -0.20717908 -0.008465995 0.094758466 -0.26510656 0.09763822 -0.19288853
-0.023187848 -0.06774295 0.085098416 0.00091526366 -0.13595673 -0.19610941 -0.19721124 0.05674896
0.09766603 -0.16047391 -0.06238579 0.063012056 0.036511462 0.0037367116 0.081992626 -0.007548264
0.0020682937 -0.017933572 -0.09263751 -0.09905485 0.053924233 -0.08268898 0.11379114 -0.06042891
-0.18768738 0.06318849 -0.16014265 -0.060875963 0.16372062 -0.07876822 -0.34010792 -0.00011607009
-0.08081284 -0.016626695 0.1742864 0.01869556 -0.18830015 -0.12479701 -0.14136143 -0.11757259
00000000: d24d 0c3c ea53 07bd 6207 73bd 3eee 0e3d
00000010: 4615 98bd 3855 133e 561c bbbd 5270 2e39
00000020: 6eb9 37be ee90 92bd 3289 47be f91a 8b3e
00000030: ae3b 003e 3745 3dbd b0a4 3fbe cb22 89bd
00000040: c817 493e 21b3 f43d f2ac acbd 7354 26bd
00000050: eba5 133e dd2f d53d e77f 6bbd 5c5e 353e
00000060: 958f 083b 1cbb 54bd cfd1 87bd 19b2 a4bd
00000070: c67e 22be dce0 eabd bb00 07be 3d3f 923c
00000080: a94b 8cbb 3a29 133e 3e94 233e 89a6 b33b
00000090: af7b 28bd 15e9 db3c da2a e53c ee90 adbd
000000a0: 6731 26bd 8a40 f63d a4f5 9abe d701 95bc
000000b0: 87ca eebb fafe 523e 59ea 08be a12a e7be
000000c0: b8dc 3abe 2fc9 20be 46cc 7bbe 7d3b 02bd
000000d0: d419 3bbc 845f 0dbc 9289 c2bd f899 70be
000000e0: 5cdd 3dbe aaca 703d 9cf8 0b3e 8e57 fa3d
000000f0: 746f d5bd a696 84be 4c64 c8bb f1ec d1bd
00000100: a3c8 fdbd f773 38be bf0d 283e cb95 e9bc
00000110: 4037 fd3c 1b01 543e dec2 b0bd e32b aebe
00000120: 78ae dd3c 51d1 cf3d 263f b43c e34b df3d
00000130: f0ee 4bbe bd4e 41bc 5735 bcbd 015b 853b
00000140: 18e0 1c3d 5fb8 693b c98b b4bd bc93 263d
00000150: 3452 73be 26fb a43d f033 8abe cc49 a03d
00000160: c960 3b3d 2215 753d 058f 39be 44d9 f93d
00000170: fd68 683d 0bf4 363c ed03 a0bd 6ce7 d73d
00000180: 3d53 00bd 4a85 93bc b40f e23d b310 01bc
00000190: 9b43 7b3d 92ea e8bd c2ae 6c3d 1490 4dbd
000001a0: 27b9 9bbd 8592 cf3d c570 5fbc 5e3d bebd
000001b0: 29f2 d7bc 3f97 a53d 08d9 03be a5f8 7cbc
000001c0: 32ca 50bd 2882 27be 4e59 af3d 2c79 cd3d
000001d0: 0add 57be 8bc0 f73d 5b27 9a3d 965e bd3c
000001e0: ecde 9e3d c352 31bb 0f5c 8dbd 44d7 54bd
000001f0: bd86 3dbe 69bd 543a e4b3 863d aef5 d8bd
00000200: 9e63 0a3d 8d53 84bd 9586 abbd 3a3b fb3b
00000210: 1a7c 833d 7367 aa3d 9f77 63be 07ff 2cbe
00000220: e872 5bbd e1a4 01be 234f 45be f165 e8bd
00000230: 4af1 79bd f1af 91bd 6acd a03d 8181 fa3b
00000240: 3ee9 cb3d 0ef2 4e3e 45ea 983d 50ad 48bd
00000250: 0a44 f8bd 3375 0abe cd48 55bc 632e d93d
00000260: ebd5 53be 78ea 35bd 5614 a23d 674e 843d
00000270: 4c87 f93c db10 813d 01fa 5ebe a784 3f3c
00000280: c788 6abe 14a4 59be b524 933d 2549 41be
00000290: b1b8 ddbd 9fa5 bbbd 106b 653d 6306 34be
000002a0: e7bb 68be eb0d 033e 3c6b 133d fa34 913c
000002b0: c288 5ebe 35ab 813e 5d64 5ebe 9c0e ee3d
000002c0: 3eda e83d 64ac c03d e0b6 9ebd efe8 78bc
000002d0: 060e aebc 96b6 25bd da20 88be 0e36 b73d
000002e0: 250b 8dbe 7e1e 923b f03d 8abe 2873 89bd
000002f0: 05f9 273e 16df c4bc 2214 eb3d 4070 ba3c
00000300: 057d bb3c 3128 88bd 5646 e0bd d3d7 6a3d
00000310: 0511 19be 4438 09be 49a6 6bbd ea60 f53d
00000320: 6234 833d 2bdf 37be bb65 5abd 395d 97bd
00000330: f272 173e f662 d73d 9cb3 17be 816b 22bd
00000340: d53f d33d 467e a43e c126 54be f5b4 0abc
00000350: ba10 c23d 0cbc 87be 8cf6 c73d 9284 45be
00000360: 71f4 bdbc d1bc 8abd 1448 ae3d 4eee 6f3a
00000370: 3e38 0bbe e8d0 48be bef1 49be 9971 683d
00000380: 2105 c83d 4653 24be 3e88 7fbd 770c 813d
00000390: 0b8d 153d 9ee3 743b c0eb a73d 6e57 f7bb
000003a0: 368c 073b 6de9 92bc bcb8 bdbd 45dd cabd
000003b0: a8df 5c3d d758 a9bd 540b e93d 4e84 77bd
000003c0: 1f31 40be f868 813d 6ffc 23be 1359 79bd
000003d0: 61a6 273e 3c51 a1bd a022 aebe a86a f3b8
000003e0: 3481 a5bd b534 88bc 2278 323e 6e27 993c
000003f0: c1d1 40be 9395 ffbd 0dc1 10be e6c9 f0bd

advantage.bias f4 [64]
0.047231264 0.1234821 -0.12223969 -0.007569912 0.051701434 0.059399974 0.06650248 0.05185829
0.026841689 -0.11691283 0.12106851 -0.029260637 -0.03300646 -0.07434103 0.099296 0.11614767
0.04295166 -0.08848214 -0.02107069 -0.07690481 0.096112505 0.04029585 0.101185404 -0.12114902
-0.07933384 -0.067875855 0.12884282 0.08386673 0.07995001 -0.14185306 -0.054981172 -0.028832313
-0.050827295 0.10898662 -0.20278491 -0.012351747 0.04022234 0.043061934 -0.053727333 -0.070723616
-0.06283078 0.039056882 -0.024200523 0.038926445 -0.07329855 0.094047345 -0.085912794 -0.039994795
-0.08204648 0.02462252 -0.054652307 0.10710397 -0.06932248 0.09844442 0.084451936 -0.10514444
-0.1554769 -0.060953468 -0.024169374 -0.059955884 -0.15866934 0.0554265 -0.032719314 0.07755169
00000000: 9275 413d 2fe4 fc3d cd58 fabd 060d f8bb
00000010: e2c4 533d 634d 733d 7432 883d 5c69 543d
00000020: 1ae3 db3c fe6f efbd c4f2 f73d 01b4 efbc
00000030: c831 07bd 1c40 98bd b45b cb3d d4de ed3d
00000040: 14ee 2f3d 2036 b5bd 719c acbc 4580 9dbd
00000050: a2d6 c43d 430d 253d 4b3a cf3d fa1c f8bd
00000060: c879 a2bd 7f02 8bbd 5fef 033e 52c2 ab3d
00000070: d5bc a33d ee41 11be f033 61bd be31 ecbc
00000080: 4830 50bd 6134 df3d d9a6 4fbe fb5e 4abc
00000090: 2ec0 243d b661 303d 3111 5cbd 8bd7 90bd
000000a0: 6dad 80bd 1cfa 1f3d 2d40 c6bc 5671 1f3d
000000b0: 8d1d 96bd e59b c03d 0cf3 afbd 95d1 23bd
000000c0: fc07 a8bd 2bb5 c93c 19db 5fbd 5459 db3d
000000d0: f2f8 8dbd 3a9d c93d 23f5 ac3d f855 d7bd
000000e0: 5635 1fbe 58aa 79bd dafe c5bc 4d94 75bd
000000f0: 377a 22be e606 633d b004 06bd 6cd3 9e3d

advantage2.weight f4 [4, 64]
-0.26609045 -0.0833815 -0.14641877 0.09975745 -0.05617204 0.015009781 -0.04475272 0.079419516
0.1953211 -0.1791741 0.07066362 0.1966204 0.1350447 0.15103163 -0.17878813 0.027123893
0.05674725 -0.031098375 -0.20623763 -0.5278199 -0.118225865 0.116520405 0.20464759 -0.079872124
-0.06849754 -0.36043057 0.32094392 -0.13513392 -0.11927135 0.09716567 -0.049986325 0.010048895
0.1990686 0.041302383 -0.08365027 -0.084658965 -0.26009855 -0.08197262 0.01942183 0.09762154
0.050945625 0.18114872 -0.12863797 -0.4473207 -0.013016753 -0.03894903 0.20484455 -0.16713557
-0.012906988 0.06514983 -0.23778087 -0.025589135 0.099873506 0.16781853 0.11800818 0.09985142
0.14348656 -0.116198316 -0.00925103 -0.12154887 0.0067021283 0.31297922 0.22855319 -0.2402537
0.12086441 -0.034205046 0.006695591 0.2718715 0.091139585 -0.122742005 0.05506366 0.14444923
-0.03201567 0.047981724 -0.03505578 0.073827505 -0.048101243 0.09215487 0.120922506 0.019625124
-0.024355756 0.04461513 -0.10345365 0.2612418 -0.049967412 0.2005232 0.041206118 -0.092859775
-0.040882103 0.041926205 0.15122662 0.017466106 -0.07790133 0.03284779 0.028045064 -0.12821153
-0.07124282 -0.1860082 -0.086522505 0.06700381 0.12631607 -0.1500195 0.050856315 0.05176005
-0.026469627 -0.04395241 0.023067778 0.012950829 0.1682659 -0.03725283 -0.3844712 -0.0010958959
-0.050270043 0.11255187 0.12357532 -0.11010593 0.21304932 0.03466088 0.11981027 0.08417136
-0.10577243 0.011249925 -0.012948934 -0.062462132 -0.031028112 0.41337994 0.10727605 0.100195155
0.18039843 0.21973006 -0.1748064 0.41921258 0.326871 -0.20112082 0.11039762 -0.04841167
-0.32240415 0.14138958 -0.112468086 -0.14556825 0.31014282 -0.1209025 -0.35266343 0.16992262
-0.019847589 -0.10706732 0.036357384 -0.363178 -0.08698634 -0.21627672 -0.18682857 -0.118838094
-0.120162144 -0.021343708 -0.23710093 -0.069263205 -0.02132915 -0.0030103817 0.13668482 0.10904701
0.13220233 -0.00583124 -0.108872935 -0.14704658 -0.15490907 -0.13756749 -0.051784825 0.30406132
-0.406816 0.09436914 -0.100212224 0.26101866 -0.43507987 -0.0073075513 -0.3113316 -0.39140454
0.0058554104 0.19386812 0.15725537 0.042683553 0.3466359 -0.06747418 -0.15221193 -0.090701334
-0.18923378 -0.11596651 0.13963515 -0.04101113 0.16205402 0.24202071 -0.07347417 0.13258013
0.010063709 -0.042229492 -0.2415329 -0.2550519 -0.09403879 0.06986705 -0.2576563 0.21853517
0.37982446 0.03814843 -0.11533363 -0.12701817 -0.039169863 -0.20902243 -0.22530586 -0.10451416
0.15190642 -0.2833945 -0.16555712 -0.0028814143 0.017091362 -0.42947313 0.21334977 -0.07618157
-0.14018568 -0.07667234 -0.10024307 -0.09298992 -0.04028858 0.038695566 -0.10293256 -0.0026393523
-0.30763358 0.19298916 -0.062438864 0.39484853 0.16398382 0.21144113 0.00015653498 -0.11830819
0.014348537 0.063464046 -0.090188794 -0.25284627 0.27353463 0.0799612 0.26980117 0.3490822
0.2717894 0.007294507 0.18657799 -0.113623574 -0.06608695 0.005446002 0.29308444 -0.114883594
0.0129969055 0.35395026 0.0056404457 0.26426962 -0.20290962 -0.18213692 -0.039183035 -0.24136242
00000000: 023d 88be ebc3 aabd cdee 15be a24d cc3d
00000010: a714 66bd 96eb 753c a14e 37bd b3a6 a23d
00000020: 4102 483e 6a79 37be 17b8 903d dc56 493e
00000030: 2849 0a3e 09a8 1a3e 3c14 37be ed32 de3c
00000040: ce6f 683d 05c2 febc f52f 53be 341f 07bf
00000050: 6720 f2bd 40a2 ee3d 238f 513e ff93 a3bd
00000060: 7048 8cbd 5b8a b8be c352 a43e 8c60 0abe
00000070: 8a44 f4bd cbfe c63d 76be 4cbd 1fa4 243c
00000080: a4d8 4b3e b02c 293d d550 abbd ae61 adbd
00000090: a32b 85be 43e1 a7bd 881a 9f3c cded c73d
000000a0: 5cac 503d 0d7f 393e acb9 03be 3807 e5be
000000b0: 3844 55bc 0589 1fbd c5c2 513e 9625 2bbe
000000c0: d577 53bc 466d 853d d47c 73be 4ea0 d1bc
000000d0: 7b8a cc3d 9fd8 2b3e 46ae f13d e77e cc3d
000000e0: 24ee 123e 62f9 edbd a291 17bc 9dee f8bd
000000f0: 879d db3b d03e a03e d909 6a3e 1105 76be
00000100: c387 f73d 971a 0cbd b066 db3b be32 8b3e
00000110: 64a7 ba3d 2960 fbbd 6f8a 613d 80ea 133e
00000120: dd22 03bd 7c88 443d a696 0fbd e032 973d
00000130: cf05 45bd b1bb bc3d 38a6 f73d dec4 a03c
00000140: b985 c7bc 5bbe 363d 82df d3bd 7cc1 853e
00000150: a1aa 4cbd f455 4d3e bfc7 283d 442d bebd
00000160: fe73 27bd d0ba 2b3d 27db 1a3e 1415 8f3c
00000170: bc8a 9fbd 678b 063d c3be e53c e249 03be
00000180: c1e7 91bd ef78 3ebe b632 b1bd 4b39 893d
00000190: 0059 013e b69e 19be b64e 503d 5902 543d
000001a0: d5d6 d8bc 7107 34bd a3f8 bc3c b72f 543c
000001b0: e54d 2c3e 6c96 18bd 69d9 c4be 2aa4 8fba
000001c0: f6e7 4dbd 9881 e63d 0f15 fd3d 387f e1bd
000001d0: 9a29 5a3e 91f8 0d3d 165f f53d 0962 ac3d
000001e0: 379f d8bd 9b51 383c c427 54bc 4bd8 7fbd
000001f0: ab2e febc 89a6 d33e 8cb3 db3d 1e33 cd3d
00000200: 5eba 383e eb00 613e 7300 33be 08a3 d63e
00000210: a35b a73e 9ef2 4dbe 2618 e23d 514b 46bd
00000220: 2812 a5be 6ec8 103e ab55 e6bd d80f 15be
00000230: 0acb 9e3e bb9b f7bd 4d90 b4be 3200 2e3e
00000240: 6997 a2bc 1c46 dbbd 7beb 143d 78f2 b9be
00000250: e525 b2bd a577 5dbe fd4f 3fbe 6361 f3bd
00000260: 9217 f6bd 00d9 aebc 96ca 72be ded9 8dbd
00000270: 78ba aebc d349 45bb 1bf7 0b3e 0a54 df3d
00000280: 0c60 073e fd13 bfbb c6f8 debd 6193 16be
00000290: 7ca0 1ebe 7ede 0cbe 531c 54bd edad 9b3e
000002a0: 304a d0be 9c44 c13d 113c cdbd 3da4 853e
000002b0: cac2 debe 2f74 efbb db66 9fbe 2d66 c8be
000002c0: bede bf3b 5d85 463e 8d07 213e f3d4 2e3d
000002d0: 437a b13e e72f 8abd 72dd 1bbe 9fc1 b9bd
000002e0: 80c6 41be d97f edbd 84fc 0e3e 49fb 27bd
000002f0: 7df1 253e 47d4 773e a079 96bd 16c3 073e
00000300: 41e2 243c d5f8 2cbd 6754 77be 2a96 82be
00000310: 6997 c0bd 7516 8f3d 87eb 83be afc7 5f3e
00000320: 5a78 c23e 8741 1c3d 0a34 ecbd 0d11 02be
00000330: 9470 20bd fa09 56be 94b6 66be 850b d6bd
00000340: 5b8d 1b3e 1519 91be ce87 29be 1cd6 3cbb
00000350: 2f03 8c3c e7e3 dbbe 5d78 5a3e 1505 9cbd
00000360: d68c 0fbe 6306 9dbd 3d4c cdbd 8071 bebd
00000370: a305 25bd 3e7f 1e3d 4ece d2bd fcf8 2cbb
00000380: 2682 9dbe f39e 453e e5bf 7fbd 9629 ca3e
00000390: 60eb 273e 0684 583e 8a23 2439 904b f2bd
000003a0: 2016 6b3c 70f9 813d e7b4 b8bd 1175 81be
000003b0: bb0c 8c3e b3c2 a33d 6123 8a3e e7ba b23e
000003c0: fb27 8b3e c306 ef3b 4d0e 3f3e 7ab3 e8bd
000003d0: 9858 87bd 6074 b23b 2a0f 963e 1748 ebbd
000003e0: f9f0 543c f838 b53e 7dd3 b83b 594e 873e
000003f0: 8ac7 4fbe 1a82 3abe 647e 20bd b627 77be

advantage2.bias f4 [4]
0.08264617 -0.024029233 -0.0076375883 -0.0063500814
00000000: 6542 a93d f4d8 c4bc bc44 fabb 5814 d0bb

value.weight f4 [64, 64]
0.019030584 0.15500304 -0.089516714 0.12459664 -0.20369521 -0.22168002 0.07831599 -0.10709173
0.06700704 0.31805575 -0.093607455 -0.15002225 0.10684506 -0.18613593 0.033445507 -0.042343948
-0.1778716 -0.03170148 0.04057689 -0.11835277 -0.09201389 0.05888873 0.0069140736 -0.15845291
-0.1605301 -0.15690017 -0.022626625 -0.022845684 -0.032409593 -0.017174251 -0.054922655 0.09641759
-0.0056061046 0.034649685 -0.07199154 -0.18003945 0.023206754 0.10288666 -0.03448343 -0.07753606
-0.07449683 -0.2515351 0.07151323 -0.002455813 -0.10734032 -0.03468646 0.13273066 -0.03508208
0.08655543 0.19300887 -0.19837637 0.07932772 -0.032338638 0.009962258 -0.03518647 0.053756244
0.0803478 0.10762174 -0.13747592 -0.4104345 -0.051613044 0.17495652 -0.12882882 0.028401226
-0.086996146 -0.0071596 0.05145394 0.15237753 0.0050812075 -0.13278957 -0.05407295 -0.118184604
0.08372252 0.12751019 -0.024902372 0.043073714 0.23173295 -0.054150876 0.061522927 -0.14293158
-0.065299384 0.19065994 0.059398264 -0.07402993 -0.037956055 0.21416068 0.01575048 -0.09120029
0.0031755515 0.13170023 -0.14062889 0.08236521 0.01760986 -0.033941023 -0.08804473 -0.053292006
-0.13750598 0.23319216 0.093714654 0.102569684 -0.16234863 -0.14428002 -0.017729923 -0.1377088
-0.057183865 0.025171075 0.058505118 -0.051740374 0.054752465 0.12109369 0.02961356 0.049155336
-0.104695775 -0.06321316 -0.071288705 -0.12597379 -0.07115264 -0.010288198 0.016348802 0.053071648
0.039500337 0.078930095 0.026161907 0.11506369 -0.24852028 -0.12251481 0.088323236 -0.05034871
-0.01612903 -0.1192638 -0.11721502 0.17828013 0.008082762 0.11590887 -0.1395277 0.13705297
-0.10626062 -0.04243521 -0.039946336 0.12021002 -0.05152197 0.16310455 -0.015664062 -0.032334782
-0.11421563 -0.0017221728 -0.21280482 -0.11028511 0.04857675 0.05052398 0.07287172 -0.07707637
0.005906302 -0.00033523797 -0.12813641 -0.45007125 0.12171564 -0.009701861 0.09289583 -0.21381573
0.22505833 -0.020923711 0.08069802 -0.06979646 -0.010974025 -0.119873926 -0.016824836 0.10055185
-0.027178787 0.08425089 -0.16684204 0.009674842 0.082658514 -0.099387646 -0.009020481 0.07003251
0.11267339 -0.029343082 -0.1463624 0.083631895 -0.020218413 -0.05501788 -0.018107107 -0.030036794
0.23014705 0.065239854 0.004620948 0.15474486 -0.011829392 -0.014150216 0.124440074 -0.01719354
-0.24224065 -0.11393717 0.099989645 0.0850619 -0.27272967 0.013098075 -0.14588815 0.02083051
-0.32083058 0.11064433 -0.083481856 -0.01638956 0.12440031 0.09283835 -0.067829244 0.14788923
-0.17137223 0.061145186 -0.010368378 -0.12380747 -0.037560765 0.05888416 -0.19701335 -0.0075217704
-0.1165615 0.028443765 0.0387318 -0.04214469 -0.21026586 0.11234824 0.098526075 -0.1977557
0.030966206 0.1896422 -0.04664105 -0.1907175 -0.123707525 0.07752877 -0.18500142 -0.06604018
-0.23692773 -0.031721637 0.013340806 0.14427224 0.044552464 -0.07829587 0.13476455 -0.096000746
-0.03856883 0.062652186 -0.2708004 0.09804137 0.08779525 0.05322079 -0.13278192 -0.07484876
0.08782398 -0.029100114 -0.16237858 0.04018147 0.021810407 -0.002632134 0.026666103 0.10284777
00000000: 07e6 9b3c 1eb9 1e3e 8a54 b7bd 862c ff3d
00000010: 7a95 50be 1600 63be 2264 a03d e952 dbbd
00000020: fd3a 893d 34d8 a23e 44b5 bfbd 6f9f 19be
00000030: 95d1 da3d 6b9a 3ebe 28fe 083d d970 2dbd
00000040: f923 36be 69d9 01bd f433 263d f062 f2bd
00000050: c771 bcbd 4f35 713d 748f e23b 7b41 22be
00000060: 0162 24be 70aa 20be 795b b9bc df26 bbbc
00000070: ecbf 04bd 04b1 8cbc 94f6 60bd 9676 c53d
00000080: 6ab3 b7bb d4ec 0d3d 4d70 93bd 435c 38be
00000090: 171c be3c 3eb6 d23d 7f3e 0dbd 3acb 9ebd
000000a0: cb91 98bd 35c9 80be 8775 923d b5f1 20bb
000000b0: 3ed5 dbbd 6413 0ebd 8cea 073e 3ab2 0fbd
000000c0: f943 b13d 1ea4 453e 2d23 4bbe 9276 a23d
000000d0: 8575 04bd bd38 233c b01f 10bd 822f 5c3d
000000e0: 638d a43d c968 dc3d 7dc6 0cbe 7924 d2be
000000f0: 3368 53bd cd27 333e b4eb 03be b0a9 e83c
00000100: 092b b2bd 149b eabb 5ec1 523d db08 1c3e
00000110: 4280 a63b fdf9 07be 997b 5dbd c50a f2bd
00000120: b676 ab3d 0892 023e 0f00 ccbc 106e 303d
00000130: 674b 6d3e 4fcd 5dbd 77ff 7b3d a85c 12be
00000140: afbb 85bd 5c3c 433e 984b 733d 019d 97bd
00000150: cf77 1bbd f04c 5b3e 2707 813c 38c7 babd
00000160: ea1c 503b 6ddc 063e 0501 10be 17af a83d
00000170: 8e42 903c be05 0bbd cc50 b4bd b848 5abd
00000180: 5ece 0cbe edc9 6e3e 78ed bf3d 0e10 d23d
00000190: b83e 26be 24be 13be 583e 91bc 8903 0dbe
000001a0: a139 6abd 9233 ce3c 10a3 6f3d b7ed 53bd
000001b0: 1f44 603d f8ff f73d 2398 f23c 1b57 493d
000001c0: bd6a d6bd e775 81bd d0ff 91bd 46ff 00be
000001d0: 7ab8 91bd d48f 28bc eced 853c a861 593d
000001e0: 1bcb 213d 1aa6 a13d 7f51 d63c 83a6 eb3d
000001f0: 1a7c 7ebe 0be9 fabd d0e2 b43d 733a 4ebd
00000200: 0721 84bc 9440 f4bd 6e0e f0bd 118f 363e
00000210: 906d 043c a161 ed3d 59e0 0ebe 9d57 0c3e
00000220: 2b9f d9bd 8bd0 2dbd c59e 23bd ac30 f63d
00000230: b408 53bd e104 273e eb51 80bc 7a71 04bd
00000240: e2e9 e9bd 88ba e1ba 82e9 59be 29dd e1bd
00000250: 6af8 463d 3cf2 4e3d c53d 953d 37da 9dbd
00000260: a789 c13b e1c2 afb9 3136 03be bd6f e6be
00000270: 0d46 f93d 8ef4 1ebc 2b40 be3d 83f2 5abe
00000280: b175 663e 3468 abbc 0145 a53d 72f1 8ebd
00000290: 66cc 33bc 7680 f5bd 3dd4 89bc 21ee cd3d
000002a0: 0ca6 debc bb8b ac3d a4d8 2abe 3a83 1e3c
000002b0: de48 a93d c08b cbbd a4ca 13bc 346d 8f3d
000002c0: 4ec1 e63d e760 f0bc 06e0 15be 3347 ab3d
000002d0: 16a1 a5bc 6e5a 61bd 5b55 94bc b90f f6bc
000002e0: abab 6b3e 799c 853d 526b 973b 7075 1e3e
000002f0: 11d0 41bc 4fd6 67bc 70da fe3d 78d9 8cbc
00000300: ef0d 78be e457 e9bd 5fc7 cc3d ef34 ae3d
00000310: 39a3 8bbe 4f99 563c b463 15be bfa4 aa3c
00000320: e843 a4be 7f99 e23d 89f8 aabd 6643 86bc
00000330: 97c5 fe3d 0822 be3d 0fea 8abd 4670 173e
00000340: 347c 2fbe 6073 7a3d 21e0 29bc c58e fdbd
00000350: 51d9 19bd 8430 713d debd 49be 2f79 f6bb
00000360: ccb7 eebd e602 e93c 3ca5 1e3d e99f 2cbd
00000370: ef4f 57be d616 e63d 0ac8 c93d 7880 4abe
00000380: d7ac fd3c 9131 423e b00a 3fbd 734b 43be
00000390: 5f5a fdbd 67c7 9e3d 0371 3dbe 1340 87bd
000003a0: 2f9d 72be 8cee 01bd 6593 5a3c 1abc 133e
000003b0: a57c 363d 9659 a0bd b8ff 093e 0a9c c4bd
000003c0: 59fa 1dbd ca4f 803d 5aa6 8abe eac9 c83d
000003d0: ffcd b33d 0bfe 593d fcf7 07be 4f4a 99bd
000003e0: 0fdd b33d 5d63 eebc 9246 26be 5395 243d
000003f0: bdab b23c e17f 2cbb df72 da3c daa1 d23d

value.bias f4 [64]
-0.12593588 0.1381218 -0.02906369 -0.015126435 -0.09048362 0.18253049 0.24335536 -0.062884204
0.0388475 0.18467015 -0.024377547 -0.12856303 -0.019559609 0.006074451 0.21480018 -0.01930166
0.12604962 -0.08776287 -0.1497675 -0.07539604 0.25051486 0.11577134 -0.077444606 -0.0765069
0.15347876 0.05535781 0.0313462 0.12604977 0.025146106 0.05338436 -0.027242327 0.110784546
0.015138599 0.004132923 0.0063481936 -0.13172819 0.079924695 -0.05743835 0.06258504 -0.09788398
0.07897897 0.21376593 -0.00085827924 0.10418413 -0.08489214 0.20730707 0.091084555 -0.07100733
0.12124289 -0.12866269 0.0059256153 0.095672645 -0.035914514 -0.06803484 -0.11323808 0.1548421
0.0034036725 -0.13605316 -0.050631072 0.19652283 -0.054141525 0.008919208 -0.0900568 -0.1396391
00000000: 56f5 00be cd6f 0d3e fa16 eebc ded4 77bc
00000010: 7a4f b9bd 46e9 3a3e 2632 793e 6fc9 80bd
00000020: 8e1e 1f3d 2c1a 3d3e 6cb3 c7bc 07a6 03be
00000030: 793b a0bc 300c c73b 94f4 5b3e 841e 9ebc
00000040: 2713 013e 05bd b3bd a75c 19be 3d69 9abd
00000050: 7c43 803e 8619 ed3d 479b 9ebd a6af 9cbd
00000060: 8929 1d3e dfbe 623d df64 003d 3113 013e
00000070: 35ff cd3c 8fa9 5a3d 4d2b dfbc 02e3 e23d
00000080: e307 783c 796d 873b 8204 d03b c1e3 06be
00000090: 8faf a33d 7a44 6bbd 962c 803d 6577 c8bd
000000a0: babf a13d 75e5 5a3e 25fe 60ba 7d5e d53d
000000b0: eedb adbd 4e48 543e 8a8a ba3d 4b6c 91bd
000000c0: 314e f83d 27c0 03be aa2b c23b 05f0 c33d
000000d0: 191b 13bd da55 8bbd 5ee9 e7bd ed8e 1e3e
000000e0: 2610 5f3b 8551 0bbe 8762 4fbd 483d 493e
000000f0: 81c3 5dbd df21 123c b36f b8bd 8dfd 0ebe

value2.weight f4 [1, 64]
-0.058669817 0.08416132 -0.12630895 -0.0691221 -0.3739253 0.09259845 0.06733311 -0.36040214
0.18180378 0.092882425 -0.13559893 -0.35125235 -0.09241925 -0.2397231 0.10597038 -0.10092177
0.16956738 0.14932837 -0.1148209 -0.25471264 0.11263918 0.09360971 0.18059288 -0.16432127
0.09312648 0.060428765 0.17897005 0.08696006 0.28310844 0.064888805 0.17114304 0.38619086
0.33483836 -0.41510648 0.08047773 -0.17726153 -0.287267 -0.037377555 0.16497757 -0.09146682
0.0775331 0.11303696 -0.05218193 0.15099792 0.22403479 0.12457714 0.3307529 -0.15154833
0.21114965 -0.16027683 0.097156875 -0.16580562 -0.104919724 0.06724032 0.19467427 0.15651564
-0.23049365 -0.0385291 -0.38842764 0.12155606 0.22545063 0.1638954 0.31296512 -0.042635616
00000000: c34f 70bd c55c ac3d 2257 01be e38f 8dbd
00000010: 2373 bfbe 42a4 bd3d f1e5 893d a186 b8be
00000020: c52a 3a3e 2439 be3d 72da 0abe 59d7 b3be
00000030: 4e46 bdbd f979 75be 0007 d93d 13b0 cebd
00000040: 12a3 2d3e 89e9 183e 3827 ebbd b269 82be
00000050: 5faf e63d 73b6 bf3d 57ed 383e d643 28be
00000060: 19b9 be3d 2784 773d ed43 373e 1e18 b23d
00000070: 97f3 903e 6ce4 843d 1f40 2f3e cfba c53e
00000080: ef6f ab3e d688 d4be 82d1 a43d 0c84 35be
00000090: a914 93be 3519 19bd e1ef 283e f552 bbbd
000000a0: adc9 9e3d ec7f e73d b8bc 55bd 339f 1a3e
000000b0: 6069 653e 4d22 ff3d 7258 a93e 7c2f 1bbe
000000c0: 9d37 583e 9c1f 24be 2ffa c63d f3c8 29be
000000d0: 27e0 d6bd 4bb5 893d b158 473e a345 203e
000000e0: 8706 6cbe b1d0 1dbd fddf c6be 62f2 f83d
000000f0: 88dc 663e 32d4 273e f73c a03e afa2 2ebd
